servitor.tflite (tflite, 65464 bytes, 18 tensors)

tfl.pseudo_qconst1 i1 [1, 3328] scale=0.0007616287 zero_point=0
00000000: 27bb 0921 384a 1902 e7c1 0aac e513 d5ec
00000010: be14 e1d3 fd8b c817 0b30 fd09 1de5 ddd0
00000020: d044 0fc6 c6e8 ef3b 09f5 f604 dcd7 002a
00000030: cee8 ccf3 c0c4 f4fd d0ae b711 69e6 f5fd
00000040: 0ebf edf0 1bec d5fe eff4 c6e3 df02 19e4
00000050: ef5a 18d6 23ae 02e1 3ac9 de12 c5d1 15b9
00000060: 13ed ce0f 02fc 1fe0 0f07 c2c2 dee5 fa04
00000070: 010e 2a08 edde 2610 f316 b619 36ea feef
00000080: 0efd 16ca 2b01 e6f6 d412 d019 1e1a f402
00000090: ba2e d4d0 f0b3 170f 15e3 32cb 200c e808
000000a0: 2c01 f5f4 231f f20b 1b35 b9fa f3ec cdd5
000000b0: d6ee c4d2 c8db 103f 0dc4 00cc 47fd 0f30
000000c0: dbdb 06d1 1137 2204 d3e3 be05 fb31 d3c7
000000d0: b65c 18bb c3a5 dfde 3121 c9c2 b735 0411
000000e0: ee2e 23b6 d202 0e04 2028 f9e3 d1c9 d4e8
000000f0: ce1b dd0c eae2 123d d5e1 e5c8 22da c1dd
0.029703518 -0.05255238 0.006854658 0.025133746 0.042651206 0.05636052 0.019040717 0.0015232573
-0.019040717 -0.047982607 0.0076162866 -0.06397681 -0.020563975 0.014470945 -0.032750033 -0.015232573
-0.05026749 0.015232573 -0.02361049 -0.03427329 -0.002284886 -0.08911055 -0.042651206 0.017517459
0.008377915 0.036558177 -0.002284886 0.006854658 0.022087231 -0.020563975 -0.026657004 -0.036558177
-0.036558177 0.05179075 0.01142443 -0.044174463 -0.044174463 -0.018279089 -0.012947688 0.04493609
0.006854658 -0.008377915 -0.0076162866 0.0030465147 -0.027418632 -0.031226777 0.0 0.031988405
-0.038081434 -0.018279089 -0.03960469 -0.0099011725 -0.048744235 -0.04569772 -0.009139544 -0.002284886
-0.036558177 -0.062453553 -0.055598892 0.012947688 0.07997101 -0.019802345 -0.008377915 -0.002284886
0.010662802 -0.049505863 -0.014470945 -0.012186059 0.020563975 -0.015232573 -0.032750033 -0.0015232573
-0.012947688 -0.009139544 -0.044174463 -0.022087231 -0.025133746 0.0015232573 0.019040717 -0.021325603
-0.012947688 0.06854658 0.018279089 -0.031988405 0.026657004 -0.062453553 0.0015232573 -0.02361049
0.044174463 -0.041889578 -0.025895376 0.013709316 -0.04493609 -0.03579655 0.015994202 -0.054075636
0.014470945 -0.014470945 -0.038081434 0.01142443 0.0015232573 -0.0030465147 0.02361049 -0.024372118
0.01142443 0.005331401 -0.04722098 -0.04722098 -0.025895376 -0.020563975 -0.004569772 0.0030465147
0.0007616287 0.010662802 0.031988405 0.0060930294 -0.014470945 -0.025895376 0.02894189 0.012186059
-0.0099011725 0.01675583 -0.05636052 0.019040717 0.04112795 -0.01675583 -0.0015232573 -0.012947688
0.010662802 -0.002284886 0.01675583 -0.04112795 0.032750033 0.0007616287 -0.019802345 -0.0076162866
-0.03351166 0.013709316 -0.036558177 0.019040717 0.02284886 0.019802345 -0.009139544 0.0015232573
-0.053314008 0.035034917 -0.03351166 -0.036558177 -0.012186059 -0.05864541 0.017517459 0.01142443
0.015994202 -0.022087231 0.038081434 -0.040366318 0.024372118 0.009139544 -0.018279089 0.0060930294
0.03351166 0.0007616287 -0.008377915 -0.009139544 0.026657004 0.02361049 -0.010662802 0.008377915
0.020563975 0.040366318 -0.054075636 -0.004569772 -0.0099011725 -0.015232573 -0.03884306 -0.032750033
-0.031988405 -0.013709316 -0.04569772 -0.035034917 -0.042651206 -0.02818026 0.012186059 0.047982607
0.0099011725 -0.04569772 0.0 -0.03960469 0.054075636 -0.002284886 0.01142443 0.036558177
-0.02818026 -0.02818026 0.004569772 -0.03579655 0.012947688 0.041889578 0.025895376 0.0030465147
-0.03427329 -0.022087231 -0.05026749 0.0038081433 -0.0038081433 0.037319805 -0.03427329 -0.043412834
-0.05636052 0.070069835 0.018279089 -0.05255238 -0.04645935 -0.06930821 -0.025133746 -0.025895376
0.037319805 0.025133746 -0.041889578 -0.04722098 -0.055598892 0.040366318 0.0030465147 0.012947688
-0.013709316 0.035034917 0.026657004 -0.05636052 -0.035034917 0.0015232573 0.010662802 0.0030465147
0.024372118 0.030465147 -0.005331401 -0.022087231 -0.03579655 -0.041889578 -0.03351166 -0.018279089
-0.038081434 0.020563975 -0.026657004 0.009139544 -0.01675583 -0.02284886 0.013709316 0.04645935
-0.032750033 -0.02361049 -0.020563975 -0.042651206 0.025895376 -0.02894189 -0.047982607 -0.026657004

tfl.pseudo_qconst3 i1 [64, 1, 1, 64]
00000000: fc12 1c39 be2e 81f6 f7cf 7216 6f52 a4ae
00000010: 8d10 07dd db31 0fe5 fcfc f823 3d3a 0e9e
00000020: 025c 50bb e0a8 d36b 462d 3b11 5529 0a21
00000030: 217e c218 15f6 18ab 509d 2d0e 456c c9d0
00000040: ec52 b145 b4f3 59de 41fc 4191 d612 e3e8
00000050: ec1e 97b3 ddad 3c25 6c0d 70fd 0345 cf50
00000060: d532 1701 640a 81ed fe48 5b4c b1df 54f6
00000070: be20 72c9 f61b 05cc f0af 6ac8 6212 1e1c
00000080: 0046 6da0 1f55 d413 31d8 1f48 d743 ff53
00000090: 2fbe 424e eb26 f711 903d 1581 a553 b69e
000000a0: cef1 f908 7535 25dc e1f1 5ce3 c2c9 06fd
000000b0: 3927 9859 c402 42e1 efea 40b4 cfee a1fd
000000c0: e641 cd10 b927 bbe3 c850 cacc b0fd 5939
000000d0: 9d4e cc44 3753 3251 530d 7f42 5221 1dbc
000000e0: aad1 ce11 dcdc 0b73 0ab4 b4da 13b3 3ade
000000f0: 90c5 c5c8 3f23 4fa8 354a 69db b5d1 bbfb
-4 18 28 57 -66 46 -127 -10
-9 -49 114 22 111 82 -92 -82
-115 16 7 -35 -37 49 15 -27
-4 -4 -8 35 61 58 14 -98
2 92 80 -69 -32 -88 -45 107
70 45 59 17 85 41 10 33
33 126 -62 24 21 -10 24 -85
80 -99 45 14 69 108 -55 -48
-20 82 -79 69 -76 -13 89 -34
65 -4 65 -111 -42 18 -29 -24
-20 30 -105 -77 -35 -83 60 37
108 13 112 -3 3 69 -49 80
-43 50 23 1 100 10 -127 -19
-2 72 91 76 -79 -33 84 -10
-66 32 114 -55 -10 27 5 -52
-16 -81 106 -56 98 18 30 28
0 70 109 -96 31 85 -44 19
49 -40 31 72 -41 67 -1 83
47 -66 66 78 -21 38 -9 17
-112 61 21 -127 -91 83 -74 -98
-50 -15 -7 8 117 53 37 -36
-31 -15 92 -29 -62 -55 6 -3
57 39 -104 89 -60 2 66 -31
-17 -22 64 -76 -49 -18 -95 -3
-26 65 -51 16 -71 39 -69 -29
-56 80 -54 -52 -80 -3 89 57
-99 78 -52 68 55 83 50 81
83 13 127 66 82 33 29 -68
-86 -47 -50 17 -36 -36 11 115
10 -76 -76 -38 19 -77 58 -34
-112 -59 -59 -56 63 35 79 -88
53 74 105 -37 -75 -47 -69 -5

tfl.pseudo_qconst5 i1 [1, 23, 1, 64]
00000000: 9bf8 9340 59de 6eb3 1acd 5046 05d2 afa6
00000010: e554 0e06 2c42 81b4 361a 220f ef95 12ec
00000020: 810c 095b 0bd0 2015 e719 e0ce 30db bfe8
00000030: ed1a 26eb 467f 4164 cdbc 83c3 d9ef f3f9
00000040: f6df 78aa 21e2 7130 e244 3c03 0195 48f1
00000050: 20f9 2b7f cb30 d8b8 19f8 cb52 8567 f34a
00000060: 2a26 1354 ec01 292c ddf0 14b8 eddc e41e
00000070: 127c 1717 04cd b640 e12b 9948 bcd8 1809
00000080: 81c7 f623 39bd 7f8d 685b 1cfd 0481 e99c
00000090: cfd8 fbfa a1ed 98d4 7f3c b9eb f1cb ed4b
000000a0: 09ec ab16 dd4a 4360 dd04 e0bc 2ff1 b23d
000000b0: 8132 2be9 d0cd 1439 8898 8166 68a3 07c2
000000c0: f5f4 0dfa eabf e1ed 37fe 5d05 bd03 f648
000000d0: 647f 4a2e 8c37 9be8 6dee 2f7f 8d4f 7fe5
000000e0: 2fe2 052d 1338 3332 257f d0b6 da60 d7da
000000f0: 0f1e 0ed7 7f29 5f12 f70d 9d21 4bfc e319
-101 -8 -109 64 89 -34 110 -77
26 -51 80 70 5 -46 -81 -90
-27 84 14 6 44 66 -127 -76
54 26 34 15 -17 -107 18 -20
-127 12 9 91 11 -48 32 21
-25 25 -32 -50 48 -37 -65 -24
-19 26 38 -21 70 127 65 100
-51 -68 -125 -61 -39 -17 -13 -7
-10 -33 120 -86 33 -30 113 48
-30 68 60 3 1 -107 72 -15
32 -7 43 127 -53 48 -40 -72
25 -8 -53 82 -123 103 -13 74
42 38 19 84 -20 1 41 44
-35 -16 20 -72 -19 -36 -28 30
18 124 23 23 4 -51 -74 64
-31 43 -103 72 -68 -40 24 9
-127 -57 -10 35 57 -67 127 -115
104 91 28 -3 4 -127 -23 -100
-49 -40 -5 -6 -95 -19 -104 -44
127 60 -71 -21 -15 -53 -19 75
9 -20 -85 22 -35 74 67 96
-35 4 -32 -68 47 -15 -78 61
-127 50 43 -23 -48 -51 20 57
-120 -104 -127 102 104 -93 7 -62
-11 -12 13 -6 -22 -65 -31 -19
55 -2 93 5 -67 3 -10 72
100 127 74 46 -116 55 -101 -24
109 -18 47 127 -115 79 127 -27
47 -30 5 45 19 56 51 50
37 127 -48 -74 -38 96 -41 -38
15 30 14 -41 127 41 95 18
-9 13 -99 33 75 -4 -29 25

tfl.pseudo_qconst7 i1 [64, 1, 1, 64]
00000000: 00db e9a3 e793 d54f 26ff fd9b 981e ed64
00000010: 16a3 13ed 0fa7 210f 541a b4fb b753 69f8
00000020: be60 925e 4ca4 cece d4f2 5625 9f47 22ff
00000030: 81ed ea13 dca0 c1f2 b313 c3f0 71aa 4c3a
00000040: e0dd b63f 38c9 cdbb 43a9 4c65 b333 d219
00000050: 51df e4ea c20f 1fd3 a42e e42c 6b03 0dff
00000060: d3b0 1d3e 5a0b 2f89 24bd 9bf7 d44d 9cb5
00000070: efc9 813a edf7 7074 9b91 1c6f 06bb 9829
00000080: 2c4e 5ba6 b454 a903 d711 c0af f2fa c539
00000090: f148 5b0c b301 fb46 2016 e046 98e6 f506
000000a0: 0545 d8e2 d5ca 92ef 3cd2 7fd4 c3f0 3fed
000000b0: 07f3 594f f8e6 0c17 f8bd e708 ab30 082b
000000c0: 420b 9306 3240 142d 9f32 fc64 d913 44d1
000000d0: 99c9 fd33 f5a9 06f6 147f 47d5 9470 0db9
000000e0: 723f b92b 0ed4 d4de 8ef5 886d a5fb 6d9a
000000f0: 2f60 e4e5 d820 d763 fa5b 5dbe 591b 2030
0 -37 -23 -93 -25 -109 -43 79
38 -1 -3 -101 -104 30 -19 100
22 -93 19 -19 15 -89 33 15
84 26 -76 -5 -73 83 105 -8
-66 96 -110 94 76 -92 -50 -50
-44 -14 86 37 -97 71 34 -1
-127 -19 -22 19 -36 -96 -63 -14
-77 19 -61 -16 113 -86 76 58
-32 -35 -74 63 56 -55 -51 -69
67 -87 76 101 -77 51 -46 25
81 -33 -28 -22 -62 15 31 -45
-92 46 -28 44 107 3 13 -1
-45 -80 29 62 90 11 47 -119
36 -67 -101 -9 -44 77 -100 -75
-17 -55 -127 58 -19 -9 112 116
-101 -111 28 111 6 -69 -104 41
44 78 91 -90 -76 84 -87 3
-41 17 -64 -81 -14 -6 -59 57
-15 72 91 12 -77 1 -5 70
32 22 -32 70 -104 -26 -11 6
5 69 -40 -30 -43 -54 -110 -17
60 -46 127 -44 -61 -16 63 -19
7 -13 89 79 -8 -26 12 23
-8 -67 -25 8 -85 48 8 43
66 11 -109 6 50 64 20 45
-97 50 -4 100 -39 19 68 -47
-103 -55 -3 51 -11 -87 6 -10
20 127 71 -43 -108 112 13 -71
114 63 -71 43 14 -44 -44 -34
-114 -11 -120 109 -91 -5 109 -102
47 96 -28 -27 -40 32 -41 99
-6 91 93 -66 89 27 32 48

tfl.pseudo_qconst9 i1 [1, 15, 1, 32]
00000000: 958c dff0 1c48 0933 f602 f33d 007f 34e7
00000010: a6c4 18c7 6f27 fe3e a506 2f86 b23d d1c8
00000020: ce86 eb7c 16c9 bd2e 60b4 e9ff 8103 9416
00000030: f428 16dc 48ff d8cd a2dd 5b0d f7ff c83d
00000040: 98b8 9a7b 54ae aa29 25d3 eb5f 90cc 8131
00000050: d23a 15da b766 b4b4 a938 e0e9 e74e 0fbb
00000060: b6e3 ce0d 67d1 dd7f 65b9 b354 f50f 59a5
00000070: 81cd 5fcc 0e61 1590 5dc9 5297 3e7f 5cb3
00000080: 399f 1c90 932c 483d d0d3 bbe2 9349 bd60
00000090: fe27 51a7 a5e3 2f08 fd7b 2100 d39b 815a
000000a0: 58be 255e 5bff c53c bc7f a1c4 1d8e 2a6e
000000b0: 9e05 6e13 a07f 2981 eb7f d6d2 ff64 4f27
000000c0: 7f0c 1eb2 8144 0073 d0f2 c233 b8f7 47e4
000000d0: 951f fab8 1f35 56bc 813f 7db4 221f a4bf
000000e0: 2a41 6703 d048 4f43 ae4b f63b 265c 902a
000000f0: cfc6 544f 237a 7f05 f62a 7f40 d198 7fc2
-107 -116 -33 -16 28 72 9 51
-10 2 -13 61 0 127 52 -25
-90 -60 24 -57 111 39 -2 62
-91 6 47 -122 -78 61 -47 -56
-50 -122 -21 124 22 -55 -67 46
96 -76 -23 -1 -127 3 -108 22
-12 40 22 -36 72 -1 -40 -51
-94 -35 91 13 -9 -1 -56 61
-104 -72 -102 123 84 -82 -86 41
37 -45 -21 95 -112 -52 -127 49
-46 58 21 -38 -73 102 -76 -76
-87 56 -32 -23 -25 78 15 -69
-74 -29 -50 13 103 -47 -35 127
101 -71 -77 84 -11 15 89 -91
-127 -51 95 -52 14 97 21 -112
93 -55 82 -105 62 127 92 -77
57 -97 28 -112 -109 44 72 61
-48 -45 -69 -30 -109 73 -67 96
-2 39 81 -89 -91 -29 47 8
-3 123 33 0 -45 -101 -127 90
88 -66 37 94 91 -1 -59 60
-68 127 -95 -60 29 -114 42 110
-98 5 110 19 -96 127 41 -127
-21 127 -42 -46 -1 100 79 39
127 12 30 -78 -127 68 0 115
-48 -14 -62 51 -72 -9 71 -28
-107 31 -6 -72 31 53 86 -68
-127 63 125 -76 34 31 -92 -65
42 65 103 3 -48 72 79 67
-82 75 -10 59 38 92 -112 42
-49 -58 84 79 35 122 127 5
-10 42 127 64 -47 -104 127 -62

tfl.pseudo_qconst11 i1 [1, 9, 1, 32]
00000000: dfd0 7f79 5c29 e1fd a710 ec25 e7a5 3f7f
00000010: cda8 ea2f d2ab e4b2 7318 81d2 a968 1935
00000020: 2781 3779 f4e2 a2cf e048 554b fe37 7f5b
00000030: 8196 4f81 8145 d6b5 4ff2 ded9 be72 ad08
00000040: c03e 0e5a 54f9 eecc 1435 1281 f306 1821
00000050: c5fc ef01 0381 814f eab9 9302 d1e5 0687
00000060: 1d65 2bfa 7f33 3d92 db75 95ed c1f1 d4f3
00000070: e42a 591b cf50 0142 d85f bdff 9f7f bd81
00000080: c5a5 5364 b279 5702 28f9 f86b 48da b2da
00000090: 369b 5a38 d2d4 3a0e c962 2981 9014 81c3
000000a0: c66f 3035 5344 dada e34e 8177 fed6 d519
000000b0: 67d6 d83d 9c79 2a6c 637f e8ba 8128 ecf0
000000c0: 87d8 f37f c617 819e 3114 bef3 7f1c e55a
000000d0: a8b0 5f90 a1a7 d808 23e5 c6fd f33b c6f1
000000e0: ee44 ca41 6360 6c81 7f2a 46a2 9066 830e
000000f0: f281 0add 19fa 89c6 7f51 a4f3 9ddf 61a3
-33 -48 127 121 92 41 -31 -3
-89 16 -20 37 -25 -91 63 127
-51 -88 -22 47 -46 -85 -28 -78
115 24 -127 -46 -87 104 25 53
39 -127 55 121 -12 -30 -94 -49
-32 72 85 75 -2 55 127 91
-127 -106 79 -127 -127 69 -42 -75
79 -14 -34 -39 -66 114 -83 8
-64 62 14 90 84 -7 -18 -52
20 53 18 -127 -13 6 24 33
-59 -4 -17 1 3 -127 -127 79
-22 -71 -109 2 -47 -27 6 -121
29 101 43 -6 127 51 61 -110
-37 117 -107 -19 -63 -15 -44 -13
-28 42 89 27 -49 80 1 66
-40 95 -67 -1 -97 127 -67 -127
-59 -91 83 100 -78 121 87 2
40 -7 -8 107 72 -38 -78 -38
54 -101 90 56 -46 -44 58 14
-55 98 41 -127 -112 20 -127 -61
-58 111 48 53 83 68 -38 -38
-29 78 -127 119 -2 -42 -43 25
103 -42 -40 61 -100 121 42 108
99 127 -24 -70 -127 40 -20 -16
-121 -40 -13 127 -58 23 -127 -98
49 20 -66 -13 127 28 -27 90
-88 -80 95 -112 -95 -89 -40 8
35 -27 -58 -3 -13 59 -58 -15
-18 68 -54 65 99 96 108 -127
127 42 70 -94 -112 102 -125 14
-14 -127 10 -35 25 -6 -119 -58
127 81 -92 -13 -99 -33 97 -93

tfl.pseudo_qconst13 i1 [64, 1, 1, 64]
00000000: 2a48 6eb0 ff0c 1a36 310f 6f9e adf1 0d35
00000010: 3871 d6bf b3c1 fd5f 0ef8 4bb8 dcdc 0df4
00000020: b436 f218 959d c43e b509 ac86 1693 3ec4
00000030: 9121 0757 659e 313a 8176 21dc bf5c cd43
00000040: 145c d25a bbfc 4341 7e89 815d 61a7 e830
00000050: d56a adad ba59 3374 1414 0ebc 3a04 b412
00000060: 16c3 7156 2c15 c325 e34e 099c e898 5df3
00000070: 0f41 c94c a857 d506 ca89 1533 cce1 afb9
00000080: e5a4 f12b 23b2 5558 a404 c4b0 9d86 55e5
00000090: 4d6e b140 088e 9952 f2b8 fe58 51d6 1908
000000a0: 2540 ea9b 06b0 e272 eb6a 71f0 740b 1748
000000b0: 3b81 c93f e292 a639 14db 3341 f13f 82df
000000c0: 3a15 021b 1754 0df2 4c3c f734 fbd7 1ccd
000000d0: 3d34 9b7f fc2f fa08 3b5b 32f4 20f0 0910
000000e0: 5006 f80d 0c1e fc44 02b9 fafd 63d7 ebdd
000000f0: da09 c415 abca 40a8 cd50 c611 d901 f328
42 72 110 -80 -1 12 26 54
49 15 111 -98 -83 -15 13 53
56 113 -42 -65 -77 -63 -3 95
14 -8 75 -72 -36 -36 13 -12
-76 54 -14 24 -107 -99 -60 62
-75 9 -84 -122 22 -109 62 -60
-111 33 7 87 101 -98 49 58
-127 118 33 -36 -65 92 -51 67
20 92 -46 90 -69 -4 67 65
126 -119 -127 93 97 -89 -24 48
-43 106 -83 -83 -70 89 51 116
20 20 14 -68 58 4 -76 18
22 -61 113 86 44 21 -61 37
-29 78 9 -100 -24 -104 93 -13
15 65 -55 76 -88 87 -43 6
-54 -119 21 51 -52 -31 -81 -71
-27 -92 -15 43 35 -78 85 88
-92 4 -60 -80 -99 -122 85 -27
77 110 -79 64 8 -114 -103 82
-14 -72 -2 88 81 -42 25 8
37 64 -22 -101 6 -80 -30 114
-21 106 113 -16 116 11 23 72
59 -127 -55 63 -30 -110 -90 57
20 -37 51 65 -15 63 -126 -33
58 21 2 27 23 84 13 -14
76 60 -9 52 -5 -41 28 -51
61 52 -101 127 -4 47 -6 8
59 91 50 -12 32 -16 9 16
80 6 -8 13 12 30 -4 68
2 -71 -6 -3 99 -41 -21 -35
-38 9 -60 21 -85 -54 64 -88
-51 80 -58 17 -39 1 -13 40

tfl.pseudo_qconst15 i1 [1, 11, 1, 32]
00000000: 5fed 7fcb 2117 b84b 0640 cc79 d0d4 752a
00000010: 0921 696d 31e9 52cf 0e82 5421 0c7f bf16
00000020: 8e81 eea0 0e18 250f c9bf 8177 5409 3e39
00000030: 35d0 36da e33c a081 f681 3782 4e8d 55be
00000040: 5099 66b6 3e7a b81d 811b 1ed5 79da 8698
00000050: 7f19 15e6 dcdc 0bab 7f14 d206 dba3 226d
00000060: 7eb3 ef01 811b 1a7f 8969 8b8d 0053 92b2
00000070: 0781 d4a4 9101 67b9 09b6 fa81 461b 2b38
00000080: a6c2 0281 a36a 2975 0381 3081 b214 3389
00000090: dc1d 33d2 88dc 6093 43a9 460e 25ed 3ae8
000000a0: 4528 569f 067f 339f e854 265e 4ae2 bbd1
000000b0: 6c25 0327 dfed 3928 ef70 7f41 81b3 4b28
000000c0: 3cb9 4aa3 d342 f9f5 1f60 fcea 7f0e aa50
000000d0: 8834 0131 870d 3e1d b67b 773a 8593 3e2f
000000e0: 75a5 2cec f7e5 69ec b8ba 5cbe 2142 e321
000000f0: af0e f1e2 9481 7f09 da72 c92d de58 8186
95 -19 127 -53 33 23 -72 75
6 64 -52 121 -48 -44 117 42
9 33 105 109 49 -23 82 -49
14 -126 84 33 12 127 -65 22
-114 -127 -18 -96 14 24 37 15
-55 -65 -127 119 84 9 62 57
53 -48 54 -38 -29 60 -96 -127
-10 -127 55 -126 78 -115 85 -66
80 -103 102 -74 62 122 -72 29
-127 27 30 -43 121 -38 -122 -104
127 25 21 -26 -36 -36 11 -85
127 20 -46 6 -37 -93 34 109
126 -77 -17 1 -127 27 26 127
-119 105 -117 -115 0 83 -110 -78
7 -127 -44 -92 -111 1 103 -71
9 -74 -6 -127 70 27 43 56
-90 -62 2 -127 -93 106 41 117
3 -127 48 -127 -78 20 51 -119
-36 29 51 -46 -120 -36 96 -109
67 -87 70 14 37 -19 58 -24
69 40 86 -97 6 127 51 -97
-24 84 38 94 74 -30 -69 -47
108 37 3 39 -33 -19 57 40
-17 112 127 65 -127 -77 75 40
60 -71 74 -93 -45 66 -7 -11
31 96 -4 -22 127 14 -86 80
-120 52 1 49 -121 13 62 29
-74 123 119 58 -123 -109 62 47
117 -91 44 -20 -9 -27 105 -20
-72 -70 92 -66 33 66 -29 33
-81 14 -15 -30 -108 -127 127 9
-38 114 -55 45 -34 88 -127 -122

tfl.pseudo_qconst17 i1 [1, 7, 1, 32]
00000000: 817e 4f79 04af 475d 23eb 2bd9 a381 83bc
00000010: d907 037f ad34 c58a 8ec3 f2b3 4fdf 089f
00000020: 4f5b bef3 871b 15d1 b6ca 81e1 6702 ff49
00000030: 94d2 861b cec7 6221 dbde 13d5 2ecf e5f4
00000040: 7981 0d7f 30ba 7fff 4d4c 4550 f51b d581
00000050: dec1 c0ea 1a46 e884 a188 9bbb 37f0 81d7
00000060: 21b7 232c a247 ce3f 28d8 479e eefa 8127
00000070: 81c4 e33e 6637 addb b6bb 87d3 81fb b24c
00000080: 5408 0bf4 817f df7f 7f12 1f19 7f3e b60b
00000090: 8e81 4c1c 5d31 2c6d 8139 81e8 8d81 32f9
000000a0: c62f 2121 149e 0af4 1e7f 937f eb47 0ddb
000000b0: 9ac2 0b7a 7fdc b5f7 b7fe c17f f150 247f
000000c0: 4c10 819e 9674 b8fe 2536 4b0d d75a 9c7c
000000d0: c790 7fca 557f 817f fc7f 5f39 c4df 461a
-127 126 79 121 4 -81 71 93
35 -21 43 -39 -93 -127 -125 -68
-39 7 3 127 -83 52 -59 -118
-114 -61 -14 -77 79 -33 8 -97
79 91 -66 -13 -121 27 21 -47
-74 -54 -127 -31 103 2 -1 73
-108 -46 -122 27 -50 -57 98 33
-37 -34 19 -43 46 -49 -27 -12
121 -127 13 127 48 -70 127 -1
77 76 69 80 -11 27 -43 -127
-34 -63 -64 -22 26 70 -24 -124
-95 -120 -101 -69 55 -16 -127 -41
33 -73 35 44 -94 71 -50 63
40 -40 71 -98 -18 -6 -127 39
-127 -60 -29 62 102 55 -83 -37
-74 -69 -121 -45 -127 -5 -78 76
84 8 11 -12 -127 127 -33 127
127 18 31 25 127 62 -74 11
-114 -127 76 28 93 49 44 109
-127 57 -127 -24 -115 -127 50 -7
-58 47 33 33 20 -98 10 -12
30 127 -109 127 -21 71 13 -37
-102 -62 11 122 127 -36 -75 -9
-73 -2 -63 127 -15 80 36 127
76 16 -127 -98 -106 116 -72 -2
37 54 75 13 -41 90 -100 124
-57 -112 127 -54 85 127 -127 127
-4 127 95 57 -60 -33 70 26

tfl.pseudo_qconst19 i1 [64, 1, 1, 32]
00000000: e0c6 1b7f 3304 7a28 1be4 0262 382c 58a7
00000010: 8b4e 4d2b 089d 4fe5 aa9d 6535 b5bd 32d4
00000020: bb7f 47a5 25f6 cb29 3dc7 cd6a ffce a015
00000030: d33e 7c15 2035 87ee b419 b499 0946 99b0
00000040: 81df ca12 fd3c f68d 11c0 bebe db59 5b44
00000050: f0dc 3f4a 10a3 1a1b 17ed 22ee 0a95 cc15
00000060: 3d60 46e8 1f10 bc9b 2e40 3f41 e370 9fb6
00000070: cace 1681 5036 d807 a0cd 22c3 ca22 4c33
00000080: 6ffa 510b 1cc3 b1f7 2db6 672e 4ee0 b136
00000090: a543 023b ae33 6a4c c797 7f49 b702 daf9
000000a0: 8144 dfc2 ee57 56bd 5bb2 4cfb 7ab1 b9d4
000000b0: 8e43 28f8 20b7 1c49 ac5d c622 3acd b955
000000c0: cbee c0b3 1a02 f237 c80e a045 6664 c094
000000d0: 41bf 37d3 81df bbb3 d8db b406 6b37 9c75
000000e0: b25d 9dfb b77f bdf0 bb3b 1361 57f3 bafa
000000f0: b5c3 224f bd57 ad32 08d1 0dc4 27d7 acb4
-32 -58 27 127 51 4 122 40
27 -28 2 98 56 44 88 -89
-117 78 77 43 8 -99 79 -27
-86 -99 101 53 -75 -67 50 -44
-69 127 71 -91 37 -10 -53 41
61 -57 -51 106 -1 -50 -96 21
-45 62 124 21 32 53 -121 -18
-76 25 -76 -103 9 70 -103 -80
-127 -33 -54 18 -3 60 -10 -115
17 -64 -66 -66 -37 89 91 68
-16 -36 63 74 16 -93 26 27
23 -19 34 -18 10 -107 -52 21
61 96 70 -24 31 16 -68 -101
46 64 63 65 -29 112 -97 -74
-54 -50 22 -127 80 54 -40 7
-96 -51 34 -61 -54 34 76 51
111 -6 81 11 28 -61 -79 -9
45 -74 103 46 78 -32 -79 54
-91 67 2 59 -82 51 106 76
-57 -105 127 73 -73 2 -38 -7
-127 68 -33 -62 -18 87 86 -67
91 -78 76 -5 122 -79 -71 -44
-114 67 40 -8 32 -73 28 73
-84 93 -58 34 58 -51 -71 85
-53 -18 -64 -77 26 2 -14 55
-56 14 -96 69 102 100 -64 -108
65 -65 55 -45 -127 -33 -69 -77
-40 -37 -76 6 107 55 -100 117
-78 93 -99 -5 -73 127 -67 -16
-69 59 19 97 87 -13 -70 -6
-75 -61 34 79 -67 87 -83 50
8 -47 13 -60 39 -41 -84 -76

tfl.pseudo_qconst21 i1 [1, 5, 1, 32]
00000000: f0ac 40af 577f aa65 2b29 1131 7f4e bceb
00000010: c19d 7f83 5994 8114 7f74 6424 8181 a525
00000020: 10f9 bc9b a74b 7f7f 432d cc32 75b5 f66f
00000030: 8107 bcb2 8405 e77f 3942 71ee 9c79 e7ea
00000040: d27f 1a7f 8156 019b 7f27 7f50 040c 4177
00000050: a27f 245e a374 0501 ca13 8129 6f13 5c00
00000060: 8159 7f59 b19b e2b3 eff6 df32 42dd 957f
00000070: fc79 7f7f 8118 f5a8 8d3e 9781 1728 76e3
00000080: d6b8 a4f2 23ed 41f9 9481 7981 a27f 819c
00000090: 0441 5226 7081 a9f7 bc7f b3ba 0542 8181
-16 -84 64 -81 87 127 -86 101
43 41 17 49 127 78 -68 -21
-63 -99 127 -125 89 -108 -127 20
127 116 100 36 -127 -127 -91 37
16 -7 -68 -101 -89 75 127 127
67 45 -52 50 117 -75 -10 111
-127 7 -68 -78 -124 5 -25 127
57 66 113 -18 -100 121 -25 -22
-46 127 26 127 -127 86 1 -101
127 39 127 80 4 12 65 119
-94 127 36 94 -93 116 5 1
-54 19 -127 41 111 19 92 0
-127 89 127 89 -79 -101 -30 -77
-17 -10 -33 50 66 -35 -107 127
-4 121 127 127 -127 24 -11 -88
-115 62 -105 -127 23 40 118 -29
-42 -72 -92 -14 35 -19 65 -7
-108 -127 121 -127 -94 127 -127 -100
4 65 82 38 112 -127 -87 -9
-68 127 -77 -70 5 66 -127 -127

tfl.pseudo_qconst23 i1 [32, 5, 1, 40]
00000000: fbf5 f1ab 3291 a6d3 28f6 17c8 43b1 f713
00000010: e69c d521 60c8 540a 4112 6d05 2841 000b
00000020: 0e40 5622 fcf4 1940 71f1 18c1 a90f 1551
00000030: d919 2540 1dfb 05e3 2739 e3f7 3b40 d1cb
00000040: 7701 f73f e4d1 e93d c4df 0a01 d6d0 8e37
00000050: 1a12 6cfc 360f d6f4 f8e7 ab5b 0411 e63a
00000060: 50e4 41ea 3db2 38f9 da9c b3b2 b4e1 06dc
00000070: d911 c398 cb81 d4e1 3f5c 67e3 314c 1930
00000080: e30b 0c56 0dc5 42d2 09ee 43d5 00de 31cb
00000090: d687 b1db 06ea d5ab 12ee c61c a6ec 93d1
000000a0: 6671 2b6b 07e9 6553 6f44 33e2 4523 1b15
000000b0: edd6 ffc9 e4ac b88b 19a6 df92 fecf c1dc
000000c0: 582e 2eea cb08 4d33 e1b5 e5c7 c7ae e13a
000000d0: ce36 4edc 1734 3445 fe18 1cb2 1e28 fda4
000000e0: 81ec 0036 bdf5 01ff 4545 2829 3626 c6d7
000000f0: 080c 05ee 2f1c c850 11f4 3537 b9eb 51d4
-5 -11 -15 -85 50 -111 -90 -45
40 -10 23 -56 67 -79 -9 19
-26 -100 -43 33 96 -56 84 10
65 18 109 5 40 65 0 11
14 64 86 34 -4 -12 25 64
113 -15 24 -63 -87 15 21 81
-39 25 37 64 29 -5 5 -29
39 57 -29 -9 59 64 -47 -53
119 1 -9 63 -28 -47 -23 61
-60 -33 10 1 -42 -48 -114 55
26 18 108 -4 54 15 -42 -12
-8 -25 -85 91 4 17 -26 58
80 -28 65 -22 61 -78 56 -7
-38 -100 -77 -78 -76 -31 6 -36
-39 17 -61 -104 -53 -127 -44 -31
63 92 103 -29 49 76 25 48
-29 11 12 86 13 -59 66 -46
9 -18 67 -43 0 -34 49 -53
-42 -121 -79 -37 6 -22 -43 -85
18 -18 -58 28 -90 -20 -109 -47
102 113 43 107 7 -23 101 83
111 68 51 -30 69 35 27 21
-19 -42 -1 -55 -28 -84 -72 -117
25 -90 -33 -110 -2 -49 -63 -36
88 46 46 -22 -53 8 77 51
-31 -75 -27 -57 -57 -82 -31 58
-50 54 78 -36 23 52 52 69
-2 24 28 -78 30 40 -3 -92
-127 -20 0 54 -67 -11 1 -1
69 69 40 41 54 38 -58 -41
8 12 5 -18 47 28 -56 80
17 -12 53 55 -71 -21 81 -44

tfl.pseudo_qconst24 i1 [1, 22, 1, 64] scale=0.034318652 zero_point=-128
00000000: 8080 8080 8080 8080 8080 8080 8080 8080
00000010: 8080 8080 8080 8080 8080 8080 8080 8080
00000020: 8080 8080 8080 8080 8080 8080 8080 8080
00000030: 8080 8080 8080 8080 8080 8080 8080 8080
00000040: 8080 8080 8080 8080 8080 8080 8080 8080
00000050: 8080 8080 8080 8080 8080 8080 8080 8080
00000060: 8080 8080 8080 8080 8080 8080 8080 8080
00000070: 8080 8080 8080 8080 8080 8080 8080 8080
00000080: 8080 8080 8080 8080 8080 8080 8080 8080
00000090: 8080 8080 8080 8080 8080 8080 8080 8080
000000a0: 8080 8080 8080 8080 8080 8080 8080 8080
000000b0: 8080 8080 8080 8080 8080 8080 8080 8080
000000c0: 8080 8080 8080 8080 8080 8080 8080 8080
000000d0: 8080 8080 8080 8080 8080 8080 8080 8080
000000e0: 8080 8080 8080 8080 8080 8080 8080 8080
000000f0: 8080 8080 8080 8080 8080 8080 8080 8080
0.0 0.0 0.0 0.0 0.0 0.0 0.0 0.0
0.0 0.0 0.0 0.0 0.0 0.0 0.0 0.0
0.0 0.0 0.0 0.0 0.0 0.0 0.0 0.0
0.0 0.0 0.0 0.0 0.0 0.0 0.0 0.0
0.0 0.0 0.0 0.0 0.0 0.0 0.0 0.0
0.0 0.0 0.0 0.0 0.0 0.0 0.0 0.0
0.0 0.0 0.0 0.0 0.0 0.0 0.0 0.0
0.0 0.0 0.0 0.0 0.0 0.0 0.0 0.0
0.0 0.0 0.0 0.0 0.0 0.0 0.0 0.0
0.0 0.0 0.0 0.0 0.0 0.0 0.0 0.0
0.0 0.0 0.0 0.0 0.0 0.0 0.0 0.0
0.0 0.0 0.0 0.0 0.0 0.0 0.0 0.0
0.0 0.0 0.0 0.0 0.0 0.0 0.0 0.0
0.0 0.0 0.0 0.0 0.0 0.0 0.0 0.0
0.0 0.0 0.0 0.0 0.0 0.0 0.0 0.0
0.0 0.0 0.0 0.0 0.0 0.0 0.0 0.0
0.0 0.0 0.0 0.0 0.0 0.0 0.0 0.0
0.0 0.0 0.0 0.0 0.0 0.0 0.0 0.0
0.0 0.0 0.0 0.0 0.0 0.0 0.0 0.0
0.0 0.0 0.0 0.0 0.0 0.0 0.0 0.0
0.0 0.0 0.0 0.0 0.0 0.0 0.0 0.0
0.0 0.0 0.0 0.0 0.0 0.0 0.0 0.0
0.0 0.0 0.0 0.0 0.0 0.0 0.0 0.0
0.0 0.0 0.0 0.0 0.0 0.0 0.0 0.0
0.0 0.0 0.0 0.0 0.0 0.0 0.0 0.0
0.0 0.0 0.0 0.0 0.0 0.0 0.0 0.0
0.0 0.0 0.0 0.0 0.0 0.0 0.0 0.0
0.0 0.0 0.0 0.0 0.0 0.0 0.0 0.0
0.0 0.0 0.0 0.0 0.0 0.0 0.0 0.0
0.0 0.0 0.0 0.0 0.0 0.0 0.0 0.0
0.0 0.0 0.0 0.0 0.0 0.0 0.0 0.0
0.0 0.0 0.0 0.0 0.0 0.0 0.0 0.0

tfl.pseudo_qconst25 i1 [1, 51, 1, 64] scale=0.03882674 zero_point=-128
00000000: 8080 8080 8080 8080 8080 8080 8080 8080
00000010: 8080 8080 8080 8080 8080 8080 8080 8080
00000020: 8080 8080 8080 8080 8080 8080 8080 8080
00000030: 8080 8080 8080 8080 8080 8080 8080 8080
00000040: 8080 8080 8080 8080 8080 8080 8080 8080
00000050: 8080 8080 8080 8080 8080 8080 8080 8080
00000060: 8080 8080 8080 8080 8080 8080 8080 8080
00000070: 8080 8080 8080 8080 8080 8080 8080 8080
00000080: 8080 8080 8080 8080 8080 8080 8080 8080
00000090: 8080 8080 8080 8080 8080 8080 8080 8080
000000a0: 8080 8080 8080 8080 8080 8080 8080 8080
000000b0: 8080 8080 8080 8080 8080 8080 8080 8080
000000c0: 8080 8080 8080 8080 8080 8080 8080 8080
000000d0: 8080 8080 8080 8080 8080 8080 8080 8080
000000e0: 8080 8080 8080 8080 8080 8080 8080 8080
000000f0: 8080 8080 8080 8080 8080 8080 8080 8080
0.0 0.0 0.0 0.0 0.0 0.0 0.0 0.0
0.0 0.0 0.0 0.0 0.0 0.0 0.0 0.0
0.0 0.0 0.0 0.0 0.0 0.0 0.0 0.0
0.0 0.0 0.0 0.0 0.0 0.0 0.0 0.0
0.0 0.0 0.0 0.0 0.0 0.0 0.0 0.0
0.0 0.0 0.0 0.0 0.0 0.0 0.0 0.0
0.0 0.0 0.0 0.0 0.0 0.0 0.0 0.0
0.0 0.0 0.0 0.0 0.0 0.0 0.0 0.0
0.0 0.0 0.0 0.0 0.0 0.0 0.0 0.0
0.0 0.0 0.0 0.0 0.0 0.0 0.0 0.0
0.0 0.0 0.0 0.0 0.0 0.0 0.0 0.0
0.0 0.0 0.0 0.0 0.0 0.0 0.0 0.0
0.0 0.0 0.0 0.0 0.0 0.0 0.0 0.0
0.0 0.0 0.0 0.0 0.0 0.0 0.0 0.0
0.0 0.0 0.0 0.0 0.0 0.0 0.0 0.0
0.0 0.0 0.0 0.0 0.0 0.0 0.0 0.0
0.0 0.0 0.0 0.0 0.0 0.0 0.0 0.0
0.0 0.0 0.0 0.0 0.0 0.0 0.0 0.0
0.0 0.0 0.0 0.0 0.0 0.0 0.0 0.0
0.0 0.0 0.0 0.0 0.0 0.0 0.0 0.0
0.0 0.0 0.0 0.0 0.0 0.0 0.0 0.0
0.0 0.0 0.0 0.0 0.0 0.0 0.0 0.0
0.0 0.0 0.0 0.0 0.0 0.0 0.0 0.0
0.0 0.0 0.0 0.0 0.0 0.0 0.0 0.0
0.0 0.0 0.0 0.0 0.0 0.0 0.0 0.0
0.0 0.0 0.0 0.0 0.0 0.0 0.0 0.0
0.0 0.0 0.0 0.0 0.0 0.0 0.0 0.0
0.0 0.0 0.0 0.0 0.0 0.0 0.0 0.0
0.0 0.0 0.0 0.0 0.0 0.0 0.0 0.0
0.0 0.0 0.0 0.0 0.0 0.0 0.0 0.0
0.0 0.0 0.0 0.0 0.0 0.0 0.0 0.0
0.0 0.0 0.0 0.0 0.0 0.0 0.0 0.0

tfl.pseudo_qconst26 i1 [1, 3, 1, 40] scale=0.101960786 zero_point=-128
00000000: 8080 8080 8080 8080 8080 8080 8080 8080
00000010: 8080 8080 8080 8080 8080 8080 8080 8080
00000020: 8080 8080 8080 8080 8080 8080 8080 8080
00000030: 8080 8080 8080 8080 8080 8080 8080 8080
00000040: 8080 8080 8080 8080 8080 8080 8080 8080
00000050: 8080 8080 8080 8080 8080 8080 8080 8080
00000060: 8080 8080 8080 8080 8080 8080 8080 8080
00000070: 8080 8080 8080 8080
0.0 0.0 0.0 0.0 0.0 0.0 0.0 0.0
0.0 0.0 0.0 0.0 0.0 0.0 0.0 0.0
0.0 0.0 0.0 0.0 0.0 0.0 0.0 0.0
0.0 0.0 0.0 0.0 0.0 0.0 0.0 0.0
0.0 0.0 0.0 0.0 0.0 0.0 0.0 0.0
0.0 0.0 0.0 0.0 0.0 0.0 0.0 0.0
0.0 0.0 0.0 0.0 0.0 0.0 0.0 0.0
0.0 0.0 0.0 0.0 0.0 0.0 0.0 0.0
0.0 0.0 0.0 0.0 0.0 0.0 0.0 0.0
0.0 0.0 0.0 0.0 0.0 0.0 0.0 0.0
0.0 0.0 0.0 0.0 0.0 0.0 0.0 0.0
0.0 0.0 0.0 0.0 0.0 0.0 0.0 0.0
0.0 0.0 0.0 0.0 0.0 0.0 0.0 0.0
0.0 0.0 0.0 0.0 0.0 0.0 0.0 0.0
0.0 0.0 0.0 0.0 0.0 0.0 0.0 0.0

tfl.pseudo_qconst27 i1 [1, 4, 1, 32] scale=0.38378313 zero_point=-128
00000000: 8080 8080 8080 8080 8080 8080 8080 8080
00000010: 8080 8080 8080 8080 8080 8080 8080 8080
00000020: 8080 8080 8080 8080 8080 8080 8080 8080
00000030: 8080 8080 8080 8080 8080 8080 8080 8080
00000040: 8080 8080 8080 8080 8080 8080 8080 8080
00000050: 8080 8080 8080 8080 8080 8080 8080 8080
00000060: 8080 8080 8080 8080 8080 8080 8080 8080
00000070: 8080 8080 8080 8080 8080 8080 8080 8080
0.0 0.0 0.0 0.0 0.0 0.0 0.0 0.0
0.0 0.0 0.0 0.0 0.0 0.0 0.0 0.0
0.0 0.0 0.0 0.0 0.0 0.0 0.0 0.0
0.0 0.0 0.0 0.0 0.0 0.0 0.0 0.0
0.0 0.0 0.0 0.0 0.0 0.0 0.0 0.0
0.0 0.0 0.0 0.0 0.0 0.0 0.0 0.0
0.0 0.0 0.0 0.0 0.0 0.0 0.0 0.0
0.0 0.0 0.0 0.0 0.0 0.0 0.0 0.0
0.0 0.0 0.0 0.0 0.0 0.0 0.0 0.0
0.0 0.0 0.0 0.0 0.0 0.0 0.0 0.0
0.0 0.0 0.0 0.0 0.0 0.0 0.0 0.0
0.0 0.0 0.0 0.0 0.0 0.0 0.0 0.0
0.0 0.0 0.0 0.0 0.0 0.0 0.0 0.0
0.0 0.0 0.0 0.0 0.0 0.0 0.0 0.0
0.0 0.0 0.0 0.0 0.0 0.0 0.0 0.0
0.0 0.0 0.0 0.0 0.0 0.0 0.0 0.0

tfl.pseudo_qconst28 i1 [1, 10, 1, 64] scale=0.038949996 zero_point=-128
00000000: 8080 8080 8080 8080 8080 8080 8080 8080
00000010: 8080 8080 8080 8080 8080 8080 8080 8080
00000020: 8080 8080 8080 8080 8080 8080 8080 8080
00000030: 8080 8080 8080 8080 8080 8080 8080 8080
00000040: 8080 8080 8080 8080 8080 8080 8080 8080
00000050: 8080 8080 8080 8080 8080 8080 8080 8080
00000060: 8080 8080 8080 8080 8080 8080 8080 8080
00000070: 8080 8080 8080 8080 8080 8080 8080 8080
00000080: 8080 8080 8080 8080 8080 8080 8080 8080
00000090: 8080 8080 8080 8080 8080 8080 8080 8080
000000a0: 8080 8080 8080 8080 8080 8080 8080 8080
000000b0: 8080 8080 8080 8080 8080 8080 8080 8080
000000c0: 8080 8080 8080 8080 8080 8080 8080 8080
000000d0: 8080 8080 8080 8080 8080 8080 8080 8080
000000e0: 8080 8080 8080 8080 8080 8080 8080 8080
000000f0: 8080 8080 8080 8080 8080 8080 8080 8080
0.0 0.0 0.0 0.0 0.0 0.0 0.0 0.0
0.0 0.0 0.0 0.0 0.0 0.0 0.0 0.0
0.0 0.0 0.0 0.0 0.0 0.0 0.0 0.0
0.0 0.0 0.0 0.0 0.0 0.0 0.0 0.0
0.0 0.0 0.0 0.0 0.0 0.0 0.0 0.0
0.0 0.0 0.0 0.0 0.0 0.0 0.0 0.0
0.0 0.0 0.0 0.0 0.0 0.0 0.0 0.0
0.0 0.0 0.0 0.0 0.0 0.0 0.0 0.0
0.0 0.0 0.0 0.0 0.0 0.0 0.0 0.0
0.0 0.0 0.0 0.0 0.0 0.0 0.0 0.0
0.0 0.0 0.0 0.0 0.0 0.0 0.0 0.0
0.0 0.0 0.0 0.0 0.0 0.0 0.0 0.0
0.0 0.0 0.0 0.0 0.0 0.0 0.0 0.0
0.0 0.0 0.0 0.0 0.0 0.0 0.0 0.0
0.0 0.0 0.0 0.0 0.0 0.0 0.0 0.0
0.0 0.0 0.0 0.0 0.0 0.0 0.0 0.0
0.0 0.0 0.0 0.0 0.0 0.0 0.0 0.0
0.0 0.0 0.0 0.0 0.0 0.0 0.0 0.0
0.0 0.0 0.0 0.0 0.0 0.0 0.0 0.0
0.0 0.0 0.0 0.0 0.0 0.0 0.0 0.0
0.0 0.0 0.0 0.0 0.0 0.0 0.0 0.0
0.0 0.0 0.0 0.0 0.0 0.0 0.0 0.0
0.0 0.0 0.0 0.0 0.0 0.0 0.0 0.0
0.0 0.0 0.0 0.0 0.0 0.0 0.0 0.0
0.0 0.0 0.0 0.0 0.0 0.0 0.0 0.0
0.0 0.0 0.0 0.0 0.0 0.0 0.0 0.0
0.0 0.0 0.0 0.0 0.0 0.0 0.0 0.0
0.0 0.0 0.0 0.0 0.0 0.0 0.0 0.0
0.0 0.0 0.0 0.0 0.0 0.0 0.0 0.0
0.0 0.0 0.0 0.0 0.0 0.0 0.0 0.0
0.0 0.0 0.0 0.0 0.0 0.0 0.0 0.0
0.0 0.0 0.0 0.0 0.0 0.0 0.0 0.0

tfl.pseudo_qconst29 i1 [1, 14, 1, 64] scale=0.035802342 zero_point=-128
00000000: 8080 8080 8080 8080 8080 8080 8080 8080
00000010: 8080 8080 8080 8080 8080 8080 8080 8080
00000020: 8080 8080 8080 8080 8080 8080 8080 8080
00000030: 8080 8080 8080 8080 8080 8080 8080 8080
00000040: 8080 8080 8080 8080 8080 8080 8080 8080
00000050: 8080 8080 8080 8080 8080 8080 8080 8080
00000060: 8080 8080 8080 8080 8080 8080 8080 8080
00000070: 8080 8080 8080 8080 8080 8080 8080 8080
00000080: 8080 8080 8080 8080 8080 8080 8080 8080
00000090: 8080 8080 8080 8080 8080 8080 8080 8080
000000a0: 8080 8080 8080 8080 8080 8080 8080 8080
000000b0: 8080 8080 8080 8080 8080 8080 8080 8080
000000c0: 8080 8080 8080 8080 8080 8080 8080 8080
000000d0: 8080 8080 8080 8080 8080 8080 8080 8080
000000e0: 8080 8080 8080 8080 8080 8080 8080 8080
000000f0: 8080 8080 8080 8080 8080 8080 8080 8080
0.0 0.0 0.0 0.0 0.0 0.0 0.0 0.0
0.0 0.0 0.0 0.0 0.0 0.0 0.0 0.0
0.0 0.0 0.0 0.0 0.0 0.0 0.0 0.0
0.0 0.0 0.0 0.0 0.0 0.0 0.0 0.0
0.0 0.0 0.0 0.0 0.0 0.0 0.0 0.0
0.0 0.0 0.0 0.0 0.0 0.0 0.0 0.0
0.0 0.0 0.0 0.0 0.0 0.0 0.0 0.0
0.0 0.0 0.0 0.0 0.0 0.0 0.0 0.0
0.0 0.0 0.0 0.0 0.0 0.0 0.0 0.0
0.0 0.0 0.0 0.0 0.0 0.0 0.0 0.0
0.0 0.0 0.0 0.0 0.0 0.0 0.0 0.0
0.0 0.0 0.0 0.0 0.0 0.0 0.0 0.0
0.0 0.0 0.0 0.0 0.0 0.0 0.0 0.0
0.0 0.0 0.0 0.0 0.0 0.0 0.0 0.0
0.0 0.0 0.0 0.0 0.0 0.0 0.0 0.0
0.0 0.0 0.0 0.0 0.0 0.0 0.0 0.0
0.0 0.0 0.0 0.0 0.0 0.0 0.0 0.0
0.0 0.0 0.0 0.0 0.0 0.0 0.0 0.0
0.0 0.0 0.0 0.0 0.0 0.0 0.0 0.0
0.0 0.0 0.0 0.0 0.0 0.0 0.0 0.0
0.0 0.0 0.0 0.0 0.0 0.0 0.0 0.0
0.0 0.0 0.0 0.0 0.0 0.0 0.0 0.0
0.0 0.0 0.0 0.0 0.0 0.0 0.0 0.0
0.0 0.0 0.0 0.0 0.0 0.0 0.0 0.0
0.0 0.0 0.0 0.0 0.0 0.0 0.0 0.0
0.0 0.0 0.0 0.0 0.0 0.0 0.0 0.0
0.0 0.0 0.0 0.0 0.0 0.0 0.0 0.0
0.0 0.0 0.0 0.0 0.0 0.0 0.0 0.0
0.0 0.0 0.0 0.0 0.0 0.0 0.0 0.0
0.0 0.0 0.0 0.0 0.0 0.0 0.0 0.0
0.0 0.0 0.0 0.0 0.0 0.0 0.0 0.0
0.0 0.0 0.0 0.0 0.0 0.0 0.0 0.0
