servitor.tflite (tflite, 60944 bytes, 18 tensors)

tfl.pseudo_qconst1 i1 [1, 1088] scale=0.003520372 zero_point=0
000000 68 d0 e8 d8 da e1 cd cd de e9 f1 b5 e9 fc 0f 06
       0.3661187 -0.16897786 -0.08448893 -0.14081489 -0.13377415 -0.10913154 -0.17953898 -0.17953898 -0.11969265 -0.08096856 -0.05280558 -0.2640279 -0.08096856 -0.014081488 0.05280558 0.021122232
000010 11 d5 e2 23 dd 1a eb f5 f1 c8 e4 f1 52 eb f4 de
       0.059846327 -0.151376 -0.10561116 0.12321302 -0.12321302 0.091529675 -0.07392781 -0.038724095 -0.05280558 -0.19714084 -0.09857042 -0.05280558 0.2886705 -0.07392781 -0.042244464 -0.11969265
000020 b2 c6 f4 e6 0d e7 f5 da d7 f6 d3 f9 d6 1d f6 fe
       -0.27458903 -0.20418158 -0.042244464 -0.091529675 0.045764837 -0.088009305 -0.038724095 -0.13377415 -0.14433526 -0.03520372 -0.15841675 -0.024642605 -0.14785562 0.10209079 -0.03520372 -0.007040744
000030 e2 f8 03 54 fe f5 e0 09 07 4e 03 c4 ea 3b d1 f4
       -0.10561116 -0.028162977 0.010561116 0.29571125 -0.007040744 -0.038724095 -0.11265191 0.031683348 0.024642605 0.27458903 0.010561116 -0.21122232 -0.07744819 0.20770195 -0.16545749 -0.042244464
000040 34 f0 f2 fc 03 04 e9 09 05 f5 f9 f5 01 11 04 f8
       0.18305935 -0.056325953 -0.04928521 -0.014081488 0.010561116 0.014081488 -0.08096856 0.031683348 0.01760186 -0.038724095 -0.024642605 -0.038724095 0.003520372 0.059846327 0.014081488 -0.028162977
000050 0f 16 07 16 f2 2a fe 08 0a f4 0c f7 3e 16 f5 02
       0.05280558 0.07744819 0.024642605 0.07744819 -0.04928521 0.14785562 -0.007040744 0.028162977 0.03520372 -0.042244464 0.042244464 -0.031683348 0.21826307 0.07744819 -0.038724095 0.007040744
000060 ed fe 1e f6 0a 03 0d 00 ee f2 17 f6 fa 03 00 12
       -0.06688707 -0.007040744 0.10561116 -0.03520372 0.03520372 0.010561116 0.045764837 0.0 -0.063366696 -0.04928521 0.08096856 -0.03520372 -0.021122232 0.010561116 0.0 0.063366696
000070 0c dd 03 26 f8 fe 08 19 0f 22 0e d8 ff 19 fc 1e
       0.042244464 -0.12321302 0.010561116 0.13377415 -0.028162977 -0.007040744 0.028162977 0.088009305 0.05280558 0.11969265 0.04928521 -0.14081489 -0.003520372 0.088009305 -0.014081488 0.10561116
000080 3a fa 05 f8 f9 05 ff f0 f8 eb 08 fb 03 fb 11 0f
       0.20418158 -0.021122232 0.01760186 -0.028162977 -0.024642605 0.01760186 -0.003520372 -0.056325953 -0.028162977 -0.07392781 0.028162977 -0.01760186 0.010561116 -0.01760186 0.059846327 0.05280558
000090 f8 01 f1 03 0c 13 fa fa fb 01 f2 06 17 01 07 fb
       -0.028162977 0.003520372 -0.05280558 0.010561116 0.042244464 0.06688707 -0.021122232 -0.021122232 -0.01760186 0.003520372 -0.04928521 0.021122232 0.08096856 0.003520372 0.024642605 -0.01760186
0000a0 f8 f6 ff f7 f6 f2 14 ff f3 06 fd fc f2 09 02 fa
       -0.028162977 -0.03520372 -0.003520372 -0.031683348 -0.03520372 -0.04928521 0.07040744 -0.003520372 -0.045764837 0.021122232 -0.010561116 -0.014081488 -0.04928521 0.031683348 0.007040744 -0.021122232
0000b0 f8 ed fd 17 f7 0c ed 0d 00 3c f5 e6 09 10 13 f9
       -0.028162977 -0.06688707 -0.010561116 0.08096856 -0.031683348 0.042244464 -0.06688707 0.045764837 0.0 0.21122232 -0.038724095 -0.091529675 0.031683348 0.056325953 0.06688707 -0.024642605
0000c0 22 e2 01 15 01 f8 f9 f6 f4 ff 05 07 05 f6 1b 05
       0.11969265 -0.10561116 0.003520372 0.07392781 0.003520372 -0.028162977 -0.024642605 -0.03520372 -0.042244464 -0.003520372 0.01760186 0.024642605 0.01760186 -0.03520372 0.095050044 0.01760186
0000d0 f8 ff f4 11 fa 10 12 03 f3 0f 02 f3 10 05 ff 03
       -0.028162977 -0.003520372 -0.042244464 0.059846327 -0.021122232 0.056325953 0.063366696 0.010561116 -0.045764837 0.05280558 0.007040744 -0.045764837 0.056325953 0.01760186 -0.003520372 0.010561116
0000e0 ed 03 02 ee 0c 14 f7 ed fe 12 f9 f6 f6 01 f3 fd
       -0.06688707 0.010561116 0.007040744 -0.063366696 0.042244464 0.07040744 -0.031683348 -0.06688707 -0.007040744 0.063366696 -0.024642605 -0.03520372 -0.03520372 0.003520372 -0.045764837 -0.010561116
0000f0 f6 07 05 1a f7 22 fd 10 f5 14 0c f9 05 0c f4 fd
       -0.03520372 0.024642605 0.01760186 0.091529675 -0.031683348 0.11969265 -0.010561116 0.056325953 -0.038724095 0.07040744 0.042244464 -0.024642605 0.01760186 0.042244464 -0.042244464 -0.010561116

tfl.pseudo_qconst3 i1 [64, 1, 1, 64]
000000 1d 36 fc f8 07 0e e9 e7 12 c1 cc 04 ef bd 10 d1
       29 54 -4 -8 7 14 -23 -25 18 -63 -52 4 -17 -67 16 -47
000010 10 3c 03 fb 81 e1 39 46 ef fb 12 d5 2b 27 1a 03
       16 60 3 -5 -127 -31 57 70 -17 -5 18 -43 43 39 26 3
000020 fb f7 f0 bc 41 c6 c9 d6 c8 f5 4f 39 0c 18 08 d8
       -5 -9 -16 -68 65 -58 -55 -42 -56 -11 79 57 12 24 8 -40
000030 0a 26 dd e9 cc 31 06 ee d8 13 fb 0a 55 cd e3 11
       10 38 -35 -23 -52 49 6 -18 -40 19 -5 10 85 -51 -29 17
000040 47 98 2d 1e 1b 12 15 1b 1c 9b ff fd 74 53 23 50
       71 -104 45 30 27 18 21 27 28 -101 -1 -3 116 83 35 80
000050 03 db 4a aa b4 17 09 01 da 24 11 21 33 51 9b 11
       3 -37 74 -86 -76 23 9 1 -38 36 17 33 51 81 -101 17
000060 1e e0 59 09 da 42 0a bc ca 00 10 c0 4c 08 c8 bb
       30 -32 89 9 -38 66 10 -68 -54 0 16 -64 76 8 -56 -69
000070 61 05 c2 25 c6 d8 29 1e 81 4c 3f e0 09 44 33 fc
       97 5 -62 37 -58 -40 41 30 -127 76 63 -32 9 68 51 -4
000080 a7 01 d8 a5 fd 1f 81 11 6d 3b e7 c5 ec ae 2b 19
       -89 1 -40 -91 -3 31 -127 17 109 59 -25 -59 -20 -82 43 25
000090 6a 12 2e d3 f3 d1 3a 2c 4e cf da ca 51 30 c6 20
       106 18 46 -45 -13 -47 58 44 78 -49 -38 -54 81 48 -58 32
0000a0 24 09 3f f3 1d 62 97 f1 4c 15 56 0e f5 b9 30 04
       36 9 63 -13 29 98 -105 -15 76 21 86 14 -11 -71 48 4
0000b0 fe 5b de 23 03 ab 12 e3 16 d8 16 15 10 a4 33 06
       -2 91 -34 35 3 -85 18 -29 22 -40 22 21 16 -92 51 6
0000c0 21 e6 ed 97 89 e0 54 ae 45 fa aa bb 2c ff 75 21
       33 -26 -19 -105 -119 -32 84 -82 69 -6 -86 -69 44 -1 117 33
0000d0 c9 fb c2 ef 40 c2 3a 3c bf 4d 13 26 1c 7f ae f5
       -55 -5 -62 -17 64 -62 58 60 -65 77 19 38 28 127 -82 -11
0000e0 0e 97 f3 22 0a 76 cb b6 27 0e c2 26 31 fb c0 cd
       14 -105 -13 34 10 118 -53 -74 39 14 -62 38 49 -5 -64 -51
0000f0 27 eb 48 43 e2 d6 12 d7 3d be f0 da d2 ca 10 85
       39 -21 72 67 -30 -42 18 -41 61 -66 -16 -38 -46 -54 16 -123

tfl.pseudo_qconst5 i1 [1, 23, 1, 64]
000000 81 7f 7f c6 f0 56 1a 81 c8 90 a5 81 f8 7f b4 a4
       -127 127 127 -58 -16 86 26 -127 -56 -112 -91 -127 -8 127 -76 -92
000010 00 7f fe dd 81 cc f3 81 d9 ed f8 f8 4a cd 81 e7
       0 127 -2 -35 -127 -52 -13 -127 -39 -19 -8 -8 74 -51 -127 -25
000020 a5 7f 81 12 7f 7f b1 1b b8 17 c0 7f 02 07 ff e5
       -91 127 -127 18 127 127 -79 27 -72 23 -64 127 2 7 -1 -27
000030 81 cb 0f 16 40 42 f6 68 c4 7f 08 82 b6 24 81 81
       -127 -53 15 22 64 66 -10 104 -60 127 8 -126 -74 36 -127 -127
000040 ab 21 4c cb eb 11 0e c1 9f bd fd c9 f7 32 fc 81
       -85 33 76 -53 -21 17 14 -63 -97 -67 -3 -55 -9 50 -4 -127
000050 01 37 e5 f1 bd 0a 0a 96 98 43 da f2 7f dc c7 de
       1 55 -27 -15 -67 10 10 -106 -104 67 -38 -14 127 -36 -57 -34
000060 a7 2e ce 17 4a 44 ef e3 c8 63 ef 4e 1c 0e f3 da
       -89 46 -50 23 74 68 -17 -29 -56 99 -17 78 28 14 -13 -38
000070 de 19 19 0f 27 68 e4 5f c1 31 19 d1 1b 46 c5 c5
       -34 25 25 15 39 104 -28 95 -63 49 25 -47 27 70 -59 -59
000080 13 20 37 c2 0d fa 09 f0 d0 ee 10 dc 33 36 f4 c2
       19 32 55 -62 13 -6 9 -16 -48 -18 16 -36 51 54 -12 -62
000090 08 0b f5 5e d0 26 ee c7 c8 6e e3 e3 34 ef e2 aa
       8 11 -11 94 -48 38 -18 -57 -56 110 -29 -29 52 -17 -30 -86
0000a0 e9 27 d2 f8 02 1c e8 fc 98 0a 06 15 d9 0b 09 e5
       -23 39 -46 -8 2 28 -24 -4 -104 10 6 21 -39 11 9 -27
0000b0 cf c0 fd 11 43 77 06 1a dd 07 fd c7 fb 2a f9 d7
       -49 -64 -3 17 67 119 6 26 -35 7 -3 -57 -5 42 -7 -41
0000c0 e7 0c 0f d5 f8 4b fd a7 f5 d2 bd ec cc 02 ea b8
       -25 12 15 -43 -8 75 -3 -89 -11 -46 -67 -20 -52 2 -22 -72
0000d0 0e 23 f6 fe df e7 fc c5 c2 f5 cf 0b f8 f5 db e0
       14 35 -10 -2 -33 -25 -4 -59 -62 -11 -49 11 -8 -11 -37 -32
0000e0 bc 0c f6 0a 02 0e 0c fd ef df fb 07 bc 2b 03 cb
       -68 12 -10 10 2 14 12 -3 -17 -33 -5 7 -68 43 3 -53
0000f0 e0 f4 fd f4 31 7f 02 2d ef ed b8 18 1f 27 cc e7
       -32 -12 -3 -12 49 127 2 45 -17 -19 -72 24 31 39 -52 -25

tfl.pseudo_qconst7 i1 [64, 1, 1, 64]
000000 db 1f d8 15 be e1 e7 23 b7 b4 f2 e0 ef 18 fd 42
       -37 31 -40 21 -66 -31 -25 35 -73 -76 -14 -32 -17 24 -3 66
000010 da 2a 27 ea 0d c6 17 d8 43 cc cd af 9c 26 eb 0a
       -38 42 39 -22 13 -58 23 -40 67 -52 -51 -81 -100 38 -21 10
000020 e2 0a df e0 6d c5 fa 1f 00 38 42 d4 cf 46 1d c8
       -30 10 -33 -32 109 -59 -6 31 0 56 66 -44 -49 70 29 -56
000030 d2 7f e1 13 34 16 f8 5b 1f d1 2d e4 e3 1c c3 15
       -46 127 -31 19 52 22 -8 91 31 -47 45 -28 -29 28 -61 21
000040 18 3c 1a 39 ee 2e d5 cd ef ea db 1d 11 1b 2b 43
       24 60 26 57 -18 46 -43 -51 -17 -22 -37 29 17 27 43 67
000050 1d 0a 3b 15 29 ee 2a 19 23 ee ca 05 d0 14 fc 26
       29 10 59 21 41 -18 42 25 35 -18 -54 5 -48 20 -4 38
000060 04 64 e5 20 a0 50 1d ea 20 df 0f 17 dc d1 da 09
       4 100 -27 32 -96 80 29 -22 32 -33 15 23 -36 -47 -38 9
000070 20 10 81 d9 13 cb fe 0a f7 23 f1 ed 0f 03 ed a8
       32 16 -127 -39 19 -53 -2 10 -9 35 -15 -19 15 3 -19 -88
000080 1a 3d dc d3 dd 96 e1 e7 f0 e2 dd 21 e6 2d 11 ea
       26 61 -36 -45 -35 -106 -31 -25 -16 -30 -35 33 -26 45 17 -22
000090 18 24 0f 20 15 ba 26 1e b2 1b cc f0 d0 c4 c3 cc
       24 36 15 32 21 -70 38 30 -78 27 -52 -16 -48 -60 -61 -52
0000a0 0f 0c 8a ed 0e 81 ef 3a 0e 21 c9 e8 41 d2 48 a4
       15 12 -118 -19 14 -127 -17 58 14 33 -55 -24 65 -46 72 -92
0000b0 2c 23 6e dd 2b c0 10 20 08 ed fa 52 d7 15 dc e0
       44 35 110 -35 43 -64 16 32 8 -19 -6 82 -41 21 -36 -32
0000c0 74 ce d6 2e 39 2e e1 b3 fa 5b 29 fe 46 de e8 cd
       116 -50 -42 46 57 46 -31 -77 -6 91 41 -2 70 -34 -24 -51
0000d0 de cd 0b 81 ba bf 21 d3 17 04 ec ec 0d 19 f9 19
       -34 -51 11 -127 -70 -65 33 -45 23 4 -20 -20 13 25 -7 25
0000e0 0f 57 db 22 9e fa 2f 51 0e ef e7 e7 29 18 46 02
       15 87 -37 34 -98 -6 47 81 14 -17 -25 -25 41 24 70 2
0000f0 61 9e 27 02 09 0a 36 dc e4 b7 d5 01 21 f4 fa 10
       97 -98 39 2 9 10 54 -36 -28 -73 -43 1 33 -12 -6 16

tfl.pseudo_qconst9 i1 [1, 15, 1, 32]
000000 7f 7f e7 de 81 81 f2 a0 7f 81 05 fd 7f 81 5d d6
       127 127 -25 -34 -127 -127 -14 -96 127 -127 5 -3 127 -127 93 -42
000010 7f 81 81 a0 7f bc 1d 2c c9 b5 7f 05 09 34 e6 50
       127 -127 -127 -96 127 -68 29 44 -55 -75 127 5 9 52 -26 80
000020 2d 6e f7 c8 9e aa 19 fa 6b 82 35 10 2a e1 59 1c
       45 110 -9 -56 -98 -86 25 -6 107 -126 53 16 42 -31 89 28
000030 0c ab e0 a6 4d 9d 1f 55 e3 01 19 0a f1 0c 0c 23
       12 -85 -32 -90 77 -99 31 85 -29 1 25 10 -15 12 12 35
000040 4c 47 40 1f c1 fe e3 d0 52 e6 10 f0 44 0e ee f1
       76 71 64 31 -63 -2 -29 -48 82 -26 16 -16 68 14 -18 -15
000050 1f dd f8 e9 6b c1 2e 19 01 fe c0 fc fc c4 f6 d2
       31 -35 -8 -23 107 -63 46 25 1 -2 -64 -4 -4 -60 -10 -46
000060 4e fa 45 da d7 f0 de 1d e6 81 fc 11 2c da 39 f4
       78 -6 69 -38 -41 -16 -34 29 -26 -127 -4 17 44 -38 57 -12
000070 4a cc 10 3e dd 81 d0 41 de d3 2e fe f9 d7 03 e9
       74 -52 16 62 -35 -127 -48 65 -34 -45 46 -2 -7 -41 3 -23
000080 2b 17 50 a2 e5 f7 1d d6 4c c2 12 2e 1d 29 0a ff
       43 23 80 -94 -27 -9 29 -42 76 -62 18 46 29 41 10 -1
000090 10 0a ea 11 46 d8 0b 3e f4 13 d8 02 02 0d f6 c1
       16 10 -22 17 70 -40 11 62 -12 19 -40 2 2 13 -10 -63
0000a0 2f 2b 7f 1f 06 0a 1b d8 2e f2 21 de 46 02 ed f5
       47 43 127 31 6 10 27 -40 46 -14 33 -34 70 2 -19 -11
0000b0 1b dd e2 20 c8 2e e0 55 fa 7f d1 f9 0c fd ed 1b
       27 -35 -30 32 -56 46 -32 85 -6 127 -47 -7 12 -3 -19 27
0000c0 f9 27 40 d7 f0 e4 13 d3 f5 04 2d 05 41 2b f8 00
       -7 39 64 -41 -16 -28 19 -45 -11 4 45 5 65 43 -8 0
0000d0 55 10 ea 1f f9 49 01 2a e3 12 64 1c f0 b2 0a 05
       85 16 -22 31 -7 73 1 42 -29 18 100 28 -16 -78 10 5
0000e0 f7 f2 fa f7 ee e2 3b db 20 c9 29 0b 17 e3 23 f3
       -9 -14 -6 -9 -18 -30 59 -37 32 -55 41 11 23 -29 35 -13
0000f0 23 fa 1a 1f d1 59 ef 1d e4 db 68 0a cc e5 04 de
       35 -6 26 31 -47 89 -17 29 -28 -37 104 10 -52 -27 4 -34

tfl.pseudo_qconst11 i1 [1, 9, 1, 32]
000000 b2 7f fc fe 33 2a c5 19 0d 27 e9 81 cd d1 7f 08
       -78 127 -4 -2 51 42 -59 25 13 39 -23 -127 -51 -47 127 8
000010 90 86 01 f5 01 25 09 7f 81 34 31 d5 4d 7f e8 fc
       -112 -122 1 -11 1 37 9 127 -127 52 49 -43 77 127 -24 -4
000020 ca 77 fc fc 31 0a e2 7f 39 a8 de 14 f2 f6 17 10
       -54 119 -4 -4 49 10 -30 127 57 -88 -34 20 -14 -10 23 16
000030 c8 97 c8 3a fa 32 52 0a fa 78 34 ff ec 0b a2 09
       -56 -105 -56 58 -6 50 82 10 -6 120 52 -1 -20 11 -94 9
000040 bd f2 02 41 47 22 32 22 ef 96 de ba ce b8 da 7f
       -67 -14 2 65 71 34 50 34 -17 -106 -34 -70 -50 -72 -38 127
000050 4e e0 0e 01 b7 1f 40 66 af 5c 3a 91 e0 48 f0 df
       78 -32 14 1 -73 31 64 102 -81 92 58 -111 -32 72 -16 -33
000060 d6 e4 81 e9 10 21 31 64 26 0e ed f8 2f c7 52 60
       -42 -28 -127 -23 16 33 49 100 38 14 -19 -8 47 -57 82 96
000070 54 7f de fa 52 01 4c 60 1c f8 c2 c6 5c 60 dd 67
       84 127 -34 -6 82 1 76 96 28 -8 -62 -58 92 96 -35 103
000080 df ff e9 d7 15 19 09 d2 24 b9 0b 51 14 9e 38 eb
       -33 -1 -23 -41 21 25 9 -46 36 -71 11 81 20 -98 56 -21
000090 7e 23 ee ee 2d fb 16 05 2a 60 30 f6 b5 fa 37 e9
       126 35 -18 -18 45 -5 22 5 42 96 48 -10 -75 -6 55 -23
0000a0 20 09 4d 02 f5 08 66 28 20 ae 23 f5 49 e4 e0 4e
       32 9 77 2 -11 8 102 40 32 -82 35 -11 73 -28 -32 78
0000b0 5f 21 d6 e6 1f f7 f8 45 ba 25 57 d3 2c 55 56 2a
       95 33 -42 -26 31 -9 -8 69 -70 37 87 -45 44 85 86 42
0000c0 31 c5 52 ec ba 0b 7b e6 4b 4c d3 07 16 31 f7 7b
       49 -59 82 -20 -70 11 123 -26 75 76 -45 7 22 49 -9 123
0000d0 81 19 ff 43 fe f2 47 db 95 14 7a b1 84 0d 7f bb
       -127 25 -1 67 -2 -14 71 -37 -107 20 122 -79 -124 13 127 -69
0000e0 12 3f 51 1a 90 34 7f dc 7f 81 b1 95 be 37 c6 f5
       18 63 81 26 -112 52 127 -36 127 -127 -79 -107 -66 55 -58 -11
0000f0 27 be c7 f9 81 47 76 36 ce 8a 34 81 c9 51 b1 94
       39 -66 -57 -7 -127 71 118 54 -50 -118 52 -127 -55 81 -79 -108

tfl.pseudo_qconst13 i1 [64, 1, 1, 64]
000000 e8 0d 15 45 18 a1 17 eb 3e b3 f7 38 1c 02 f8 7c
       -24 13 21 69 24 -95 23 -21 62 -77 -9 56 28 2 -8 124
000010 ce 14 59 f5 bd f1 06 2b 2e ee 1e eb 6d 0d db 30
       -50 20 89 -11 -67 -15 6 43 46 -18 30 -21 109 13 -37 48
000020 dd 0e ff 49 cb 15 d4 d9 18 d4 05 c8 df d4 3d e2
       -35 14 -1 73 -53 21 -44 -39 24 -44 5 -56 -33 -44 61 -30
000030 03 7f 57 47 a1 ef 33 bf 58 f4 cc 68 b2 6b 5c ee
       3 127 87 71 -95 -17 51 -65 88 -12 -52 104 -78 107 92 -18
000040 1d 17 e5 f6 19 d8 3c 0a c9 da d9 09 f8 dc 0f 13
       29 23 -27 -10 25 -40 60 10 -55 -38 -39 9 -8 -36 15 19
000050 c3 e3 f9 25 fd e2 a3 1c a1 05 cb 13 1c b8 a8 2d
       -61 -29 -7 37 -3 -30 -93 28 -95 5 -53 19 28 -72 -88 45
000060 fa f0 d5 19 81 fb 5a 9f 6b 36 d6 18 a8 c0 f8 95
       -6 -16 -43 25 -127 -5 90 -97 107 54 -42 24 -88 -64 -8 -107
000070 3f 32 d2 da 22 28 eb c3 38 12 53 fa 50 22 06 da
       63 50 -46 -38 34 40 -21 -61 56 18 83 -6 80 34 6 -38
000080 0a 2b ef ed e2 2f 26 e3 e5 c1 0d ee 04 0f 21 24
       10 43 -17 -19 -30 47 38 -29 -27 -63 13 -18 4 15 33 36
000090 15 2f e0 f5 0f 0e 50 5b 7f 2f 00 34 fb fe 15 d1
       21 47 -32 -11 15 14 80 91 127 47 0 52 -5 -2 21 -47
0000a0 05 00 05 0a e4 fc 2c 01 d9 a1 01 d2 df 15 56 f9
       5 0 5 10 -28 -4 44 1 -39 -95 1 -46 -33 21 86 -7
0000b0 3d 4c df ca dc f4 35 d6 d7 49 ee 0d 15 0c fe e9
       61 76 -33 -54 -36 -12 53 -42 -41 73 -18 13 21 12 -2 -23
0000c0 f4 20 6f 04 19 16 02 e0 26 11 04 e4 1b 12 54 d8
       -12 32 111 4 25 22 2 -32 38 17 4 -28 27 18 84 -40
0000d0 c3 8a 12 3b 81 2c e5 5f 47 f3 e1 54 fa 36 19 34
       -61 -118 18 59 -127 44 -27 95 71 -13 -31 84 -6 54 25 52
0000e0 2a cb c9 c3 df 03 f0 fc 2a 33 41 b8 34 1c ea c4
       42 -53 -55 -61 -33 3 -16 -4 42 51 65 -72 52 28 -22 -60
0000f0 13 2a 09 e0 f4 66 f5 36 1f 5c e4 ab 6d 00 10 f9
       19 42 9 -32 -12 102 -11 54 31 92 -28 -85 109 0 16 -7

tfl.pseudo_qconst15 i1 [1, 11, 1, 32]
000000 a7 34 1d 42 2d 1e e6 65 30 7c 81 08 7f a9 fd 7f
       -89 52 29 66 45 30 -26 101 48 124 -127 8 127 -87 -3 127
000010 7e 1a 14 70 4e 40 81 7f 3f c3 2c 9a d4 7f f1 60
       126 26 20 112 78 64 -127 127 63 -61 44 -102 -44 127 -15 96
000020 a9 0b 54 57 0d 13 f0 c2 19 7f 9b 3d ef 81 fb 49
       -87 11 84 87 13 19 -16 -62 25 127 -101 61 -17 -127 -5 73
000030 0a 81 2c ec 01 e0 a6 1d e6 ce df 69 43 76 3e 2d
       10 -127 44 -20 1 -32 -90 29 -26 -50 -33 105 67 118 62 45
000040 b0 fe 21 e6 09 01 0a d4 02 41 da 57 23 f6 04 2a
       -80 -2 33 -26 9 1 10 -44 2 65 -38 87 35 -10 4 42
000050 1a eb 29 62 e2 f1 df 1c 0e 4d 03 57 f6 70 ed 3f
       26 -21 41 98 -30 -15 -33 28 14 77 3 87 -10 112 -19 63
000060 f2 d9 81 d7 e8 f3 ed 33 f4 fa ee 04 e6 41 05 e5
       -14 -39 -127 -41 -24 -13 -19 51 -12 -6 -18 4 -26 65 5 -27
000070 da c7 ff db 28 f1 ff 25 d6 ad 67 7f 06 22 23 36
       -38 -57 -1 -37 40 -15 -1 37 -42 -83 103 127 6 34 35 54
000080 dd 2e ab 25 04 18 fd 75 1b 0b 03 4f de d2 eb d3
       -35 46 -85 37 4 24 -3 117 27 11 3 79 -34 -46 -21 -45
000090 ff 29 fd 5c 3c c9 ab c6 e7 3e 96 25 ca fe 51 20
       -1 41 -3 92 60 -55 -85 -58 -25 62 -106 37 -54 -2 81 32
0000a0 24 27 38 53 fb 2b f5 56 3e bd eb 11 fa 5c 04 14
       36 39 56 83 -5 43 -11 86 62 -67 -21 17 -6 92 4 20
0000b0 ee 32 ea ed 7f f9 f6 ec 2a 0c b9 07 d5 af ec c7
       -18 50 -22 -19 127 -7 -10 -20 42 12 -71 7 -43 -81 -20 -57
0000c0 ea 17 98 65 f3 0b 97 24 16 a4 14 e8 0e 22 f9 0c
       -22 23 -104 101 -13 11 -105 36 22 -92 20 -24 14 34 -7 12
0000d0 d7 e4 23 81 01 d3 f7 08 c9 1d 91 e3 f8 35 f5 fb
       -41 -28 35 -127 1 -45 -9 8 -55 29 -111 -29 -8 53 -11 -5
0000e0 aa 22 d3 fd b8 d3 d0 05 19 af d4 cd 0c 71 07 db
       -86 34 -45 -3 -72 -45 -48 5 25 -81 -44 -51 12 113 7 -37
0000f0 81 b9 22 2d 1d 15 ef b6 ea 63 92 c4 df c3 aa f5
       -127 -71 34 45 29 21 -17 -74 -22 99 -110 -60 -33 -61 -86 -11

tfl.pseudo_qconst17 i1 [1, 7, 1, 32]
000000 2d 60 1c 2a 81 7f 09 86 06 f6 50 12 d2 29 7f 7f
       45 96 28 42 -127 127 9 -122 6 -10 80 18 -46 41 127 127
000010 b0 62 c1 65 81 0c bd ee 2b f2 a3 44 19 1c 65 bf
       -80 98 -63 101 -127 12 -67 -18 43 -14 -93 68 25 28 101 -65
000020 28 34 4d 55 71 47 22 42 67 a7 74 fe 14 fd 56 67
       40 52 77 85 113 71 34 66 103 -89 116 -2 20 -3 86 103
000030 13 0e 55 17 b7 04 17 65 26 dd 81 16 21 b3 17 ac
       19 14 85 23 -73 4 23 101 38 -35 -127 22 33 -77 23 -84
000040 0d f7 47 36 f0 3d 31 af 01 ca 7f 00 93 36 26 43
       13 -9 71 54 -16 61 49 -81 1 -54 127 0 -109 54 38 67
000050 e8 ae 7f 13 d9 ff 7c 2c 91 fa e1 36 2a 28 f1 ef
       -24 -82 127 19 -39 -1 124 44 -111 -6 -31 54 42 40 -15 -17
000060 d9 e4 36 7f 1a 1d e3 8d 53 0b a9 fd 9d ee ec 53
       -39 -28 54 127 26 29 -29 -115 83 11 -87 -3 -99 -18 -20 83
000070 57 14 84 3a 3c 29 7f 02 03 83 a4 d6 da 1e ba f4
       87 20 -124 58 60 41 127 2 3 -125 -92 -42 -38 30 -70 -12
000080 ec 17 4d 47 30 15 40 9a b8 0e 48 f4 4d fd 06 ec
       -20 23 77 71 48 21 64 -102 -72 14 72 -12 77 -3 6 -20
000090 27 d1 87 0e f5 08 15 c2 7f 81 23 81 a4 bd 91 8e
       39 -47 -121 14 -11 8 21 -62 127 -127 35 -127 -92 -67 -111 -114
0000a0 81 27 29 0a ad a2 eb fb d2 eb b9 81 1c d0 e4 07
       -127 39 41 10 -83 -94 -21 -5 -46 -21 -71 -127 28 -48 -28 7
0000b0 e6 81 8a 7f 97 fb f2 af 2b b2 30 f5 0d 44 03 81
       -26 -127 -118 127 -105 -5 -14 -81 43 -78 48 -11 13 68 3 -127
0000c0 b4 81 7f 46 01 ce 81 7f 81 7f c8 c8 7f 81 42 99
       -76 -127 127 70 1 -50 -127 127 -127 127 -56 -56 127 -127 66 -103
0000d0 81 ff b7 2f a0 81 97 81 8d ed 03 c5 81 7f 7f 22
       -127 -1 -73 47 -96 -127 -105 -127 -115 -19 3 -59 -127 127 127 34

tfl.pseudo_qconst19 i1 [64, 1, 1, 32]
000000 1b 13 7f 24 e3 4c 22 3b 15 f2 fd 47 00 60 05 32
       27 19 127 36 -29 76 34 59 21 -14 -3 71 0 96 5 50
000010 c9 a4 54 e1 5b 97 09 11 86 6b 01 f5 3c a6 f1 10
       -55 -92 84 -31 91 -105 9 17 -122 107 1 -11 60 -90 -15 16
000020 4a db 23 bb 81 ff 3d e0 e8 94 eb 2a e3 d5 3b 35
       74 -37 35 -69 -127 -1 61 -32 -24 -108 -21 42 -29 -43 59 53
000030 ef f0 be fc 07 0b fc 03 e4 5e cc fb 88 0a 2a c4
       -17 -16 -66 -4 7 11 -4 3 -28 94 -52 -5 -120 10 42 -60
000040 21 50 2a b2 e6 9c 60 d6 f5 18 bd 62 ba 77 61 c2
       33 80 42 -78 -26 -100 96 -42 -11 24 -67 98 -70 119 97 -62
000050 b1 00 47 d9 3f 2d fa fd 1b dc 20 35 61 e1 b2 81
       -79 0 71 -39 63 45 -6 -3 27 -36 32 53 97 -31 -78 -127
000060 31 23 e4 0f bb 8c 3c fe 5e 05 1c f5 03 68 30 99
       49 35 -28 15 -69 -116 60 -2 94 5 28 -11 3 104 48 -103
000070 33 50 94 d6 09 16 f8 7f 90 03 3a dd f5 ce 9f 1f
       51 80 -108 -42 9 22 -8 127 -112 3 58 -35 -11 -50 -97 31
000080 b0 cb d6 62 e0 bd c2 01 ca 34 2b c5 29 8a b1 2f
       -80 -53 -42 98 -32 -67 -62 1 -54 52 43 -59 41 -118 -79 47
000090 c9 81 58 0c 60 d5 21 8e 07 20 2e cb 1a d2 31 05
       -55 -127 88 12 96 -43 33 -114 7 32 46 -53 26 -46 49 5
0000a0 aa 49 06 4b 05 2f b4 30 bf 59 07 e1 28 d8 c3 be
       -86 73 6 75 5 47 -76 48 -65 89 7 -31 40 -40 -61 -66
0000b0 b3 7f 31 c7 29 67 11 b8 3a de 3a 30 73 bd f2 b4
       -77 127 49 -57 41 103 17 -72 58 -34 58 48 115 -67 -14 -76
0000c0 c6 57 b6 81 d5 f1 2f 05 d8 d1 17 bc ea df 46 06
       -58 87 -74 -127 -43 -15 47 5 -40 -47 23 -68 -22 -33 70 6
0000d0 02 b9 c4 e2 0f 27 cf e4 c7 f1 f2 1f 1c 22 0d 52
       2 -71 -60 -30 15 39 -49 -28 -57 -15 -14 31 28 34 13 82
0000e0 f4 15 7f 20 e3 3b 21 d8 11 31 27 05 21 3d fc 18
       -12 21 127 32 -29 59 33 -40 17 49 39 5 33 61 -4 24
0000f0 ef 13 dd e7 d3 d1 e9 3c 29 ef d6 21 11 a4 df ee
       -17 19 -35 -25 -45 -47 -23 60 41 -17 -42 33 17 -92 -33 -18

tfl.pseudo_qconst21 i1 [1, 5, 1, 32]
000000 f3 7d c2 69 81 37 a5 7b 99 34 65 53 52 1b 22 ae
       -13 125 -62 105 -127 55 -91 123 -103 52 101 83 82 27 34 -82
000010 93 97 5f f9 f3 1b e3 08 08 f5 7f da 4a 7f b8 2d
       -109 -105 95 -7 -13 27 -29 8 8 -11 127 -38 74 127 -72 45
000020 be 27 ec 0f 54 41 e0 7f cd 36 7f e8 47 7f cd d5
       -66 39 -20 15 84 65 -32 127 -51 54 127 -24 71 127 -51 -43
000030 40 2f dc d1 c8 6a 8f 2d f5 be 53 89 ec 7f 00 7f
       64 47 -36 -47 -56 106 -113 45 -11 -66 83 -119 -20 127 0 127
000040 d2 c2 1f bd 5f 5a a5 57 81 81 28 f3 d2 56 a5 dd
       -46 -62 31 -67 95 90 -91 87 -127 -127 40 -13 -46 86 -91 -35
000050 48 4b dd 16 81 06 81 7f 4d 39 65 81 0b f5 01 27
       72 75 -35 22 -127 6 -127 127 77 57 101 -127 11 -11 1 39
000060 e9 13 3d b2 5a 7f 81 0f c8 e2 95 7f 0d 49 43 73
       -23 19 61 -78 90 127 -127 15 -56 -30 -107 127 13 73 67 115
000070 7f 4e 81 9d e3 81 fc 2a 7f 26 ce 45 d6 1b 81 ea
       127 78 -127 -99 -29 -127 -4 42 127 38 -50 69 -42 27 -127 -22
000080 7f 81 7f 81 97 ec 0f 57 5f a3 e8 72 81 2b 7f 7f
       127 -127 127 -127 -105 -20 15 87 95 -93 -24 114 -127 43 127 127
000090 f6 81 19 81 0d 9f a9 31 7b 7f 75 25 81 e8 d0 a7
       -10 -127 25 -127 13 -97 -87 49 123 127 117 37 -127 -24 -48 -89

tfl.pseudo_qconst23 i1 [32, 5, 1, 40]
000000 ff ca bd da 05 1d 32 1c f5 3c 04 17 03 de 16 17
       -1 -54 -67 -38 5 29 50 28 -11 60 4 23 3 -34 22 23
000010 04 12 ed 14 07 f4 e1 e3 e3 f9 bb d1 f3 f6 d3 e5
       4 18 -19 20 7 -12 -31 -29 -29 -7 -69 -47 -13 -10 -45 -27
000020 13 20 d8 22 b5 07 c5 fb 12 c9 b3 c7 e5 17 45 36
       19 32 -40 34 -75 7 -59 -5 18 -55 -77 -57 -27 23 69 54
000030 18 03 08 0e 26 b9 ff 47 43 02 fc 00 e7 f5 11 c9
       24 3 8 14 38 -71 -1 71 67 2 -4 0 -25 -11 17 -55
000040 17 16 d5 f9 ee d2 e7 fb fd 22 fe d8 c9 d8 e6 0d
       23 22 -43 -7 -18 -46 -25 -5 -3 34 -2 -40 -55 -40 -26 13
000050 3f ff c5 ed 03 1b 42 66 1f 24 fe 26 39 1b 13 57
       63 -1 -59 -19 3 27 66 102 31 36 -2 38 57 27 19 87
000060 f2 f9 13 ff d6 d4 ed e8 0f e2 07 bd e3 e6 e1 e9
       -14 -7 19 -1 -42 -44 -19 -24 15 -30 7 -67 -29 -26 -31 -23
000070 e7 35 0a de b6 fb 1d f3 09 0b c7 ce fc 1c 55 7f
       -25 53 10 -34 -74 -5 29 -13 9 11 -57 -50 -4 28 85 127
000080 2f 13 2b 57 27 19 4d 2e 25 13 00 d0 f6 e4 c5 e6
       47 19 43 87 39 25 77 46 37 19 0 -48 -10 -28 -59 -26
000090 e4 d2 c1 d2 13 f3 0e ce fa 17 da ee 1b f7 43 dc
       -28 -46 -63 -46 19 -13 14 -50 -6 23 -38 -18 27 -9 67 -36
0000a0 16 14 b5 f7 16 f2 4c 78 33 3a 09 74 33 37 4b 3e
       22 20 -75 -9 22 -14 76 120 51 58 9 116 51 55 75 62
0000b0 27 f4 1b 08 14 d0 e3 b6 0e af cb d5 13 11 ed b1
       39 -12 27 8 20 -48 -29 -74 14 -81 -53 -43 19 17 -19 -79
0000c0 dc ec cb fc ce e0 25 ea 15 59 27 0a 34 01 da d7
       -36 -20 -53 -4 -50 -32 37 -22 21 89 39 10 52 1 -38 -41
0000d0 07 cf da 16 2e 2a 2d 36 05 fc db 26 06 df fb 4f
       7 -49 -38 22 46 42 45 54 5 -4 -37 38 6 -33 -5 79
0000e0 bd fe f1 f5 ee fb b4 2c 10 21 fe 18 d9 1a fa 0d
       -67 -2 -15 -11 -18 -5 -76 44 16 33 -2 24 -39 26 -6 13
0000f0 3f 7f 44 36 21 06 0c 00 0b de 02 e5 51 e5 2a 0d
       63 127 68 54 33 6 12 0 11 -34 2 -27 81 -27 42 13

tfl.pseudo_qconst24 i1 [1, 22, 1, 64] scale=0.040159583 zero_point=-128
000000 80 80 80 80 80 80 80 80 80 80 80 80 80 80 80 80
       0.0 0.0 0.0 0.0 0.0 0.0 0.0 0.0 0.0 0.0 0.0 0.0 0.0 0.0 0.0 0.0
000010 80 80 80 80 80 80 80 80 80 80 80 80 80 80 80 80
       0.0 0.0 0.0 0.0 0.0 0.0 0.0 0.0 0.0 0.0 0.0 0.0 0.0 0.0 0.0 0.0
000020 80 80 80 80 80 80 80 80 80 80 80 80 80 80 80 80
       0.0 0.0 0.0 0.0 0.0 0.0 0.0 0.0 0.0 0.0 0.0 0.0 0.0 0.0 0.0 0.0
000030 80 80 80 80 80 80 80 80 80 80 80 80 80 80 80 80
       0.0 0.0 0.0 0.0 0.0 0.0 0.0 0.0 0.0 0.0 0.0 0.0 0.0 0.0 0.0 0.0
000040 80 80 80 80 80 80 80 80 80 80 80 80 80 80 80 80
       0.0 0.0 0.0 0.0 0.0 0.0 0.0 0.0 0.0 0.0 0.0 0.0 0.0 0.0 0.0 0.0
000050 80 80 80 80 80 80 80 80 80 80 80 80 80 80 80 80
       0.0 0.0 0.0 0.0 0.0 0.0 0.0 0.0 0.0 0.0 0.0 0.0 0.0 0.0 0.0 0.0
000060 80 80 80 80 80 80 80 80 80 80 80 80 80 80 80 80
       0.0 0.0 0.0 0.0 0.0 0.0 0.0 0.0 0.0 0.0 0.0 0.0 0.0 0.0 0.0 0.0
000070 80 80 80 80 80 80 80 80 80 80 80 80 80 80 80 80
       0.0 0.0 0.0 0.0 0.0 0.0 0.0 0.0 0.0 0.0 0.0 0.0 0.0 0.0 0.0 0.0
000080 80 80 80 80 80 80 80 80 80 80 80 80 80 80 80 80
       0.0 0.0 0.0 0.0 0.0 0.0 0.0 0.0 0.0 0.0 0.0 0.0 0.0 0.0 0.0 0.0
000090 80 80 80 80 80 80 80 80 80 80 80 80 80 80 80 80
       0.0 0.0 0.0 0.0 0.0 0.0 0.0 0.0 0.0 0.0 0.0 0.0 0.0 0.0 0.0 0.0
0000a0 80 80 80 80 80 80 80 80 80 80 80 80 80 80 80 80
       0.0 0.0 0.0 0.0 0.0 0.0 0.0 0.0 0.0 0.0 0.0 0.0 0.0 0.0 0.0 0.0
0000b0 80 80 80 80 80 80 80 80 80 80 80 80 80 80 80 80
       0.0 0.0 0.0 0.0 0.0 0.0 0.0 0.0 0.0 0.0 0.0 0.0 0.0 0.0 0.0 0.0
0000c0 80 80 80 80 80 80 80 80 80 80 80 80 80 80 80 80
       0.0 0.0 0.0 0.0 0.0 0.0 0.0 0.0 0.0 0.0 0.0 0.0 0.0 0.0 0.0 0.0
0000d0 80 80 80 80 80 80 80 80 80 80 80 80 80 80 80 80
       0.0 0.0 0.0 0.0 0.0 0.0 0.0 0.0 0.0 0.0 0.0 0.0 0.0 0.0 0.0 0.0
0000e0 80 80 80 80 80 80 80 80 80 80 80 80 80 80 80 80
       0.0 0.0 0.0 0.0 0.0 0.0 0.0 0.0 0.0 0.0 0.0 0.0 0.0 0.0 0.0 0.0
0000f0 80 80 80 80 80 80 80 80 80 80 80 80 80 80 80 80
       0.0 0.0 0.0 0.0 0.0 0.0 0.0 0.0 0.0 0.0 0.0 0.0 0.0 0.0 0.0 0.0

tfl.pseudo_qconst25 i1 [1, 16, 1, 64] scale=0.030997261 zero_point=-128
000000 80 80 80 80 80 80 80 80 80 80 80 80 80 80 80 80
       0.0 0.0 0.0 0.0 0.0 0.0 0.0 0.0 0.0 0.0 0.0 0.0 0.0 0.0 0.0 0.0
000010 80 80 80 80 80 80 80 80 80 80 80 80 80 80 80 80
       0.0 0.0 0.0 0.0 0.0 0.0 0.0 0.0 0.0 0.0 0.0 0.0 0.0 0.0 0.0 0.0
000020 80 80 80 80 80 80 80 80 80 80 80 80 80 80 80 80
       0.0 0.0 0.0 0.0 0.0 0.0 0.0 0.0 0.0 0.0 0.0 0.0 0.0 0.0 0.0 0.0
000030 80 80 80 80 80 80 80 80 80 80 80 80 80 80 80 80
       0.0 0.0 0.0 0.0 0.0 0.0 0.0 0.0 0.0 0.0 0.0 0.0 0.0 0.0 0.0 0.0
000040 80 80 80 80 80 80 80 80 80 80 80 80 80 80 80 80
       0.0 0.0 0.0 0.0 0.0 0.0 0.0 0.0 0.0 0.0 0.0 0.0 0.0 0.0 0.0 0.0
000050 80 80 80 80 80 80 80 80 80 80 80 80 80 80 80 80
       0.0 0.0 0.0 0.0 0.0 0.0 0.0 0.0 0.0 0.0 0.0 0.0 0.0 0.0 0.0 0.0
000060 80 80 80 80 80 80 80 80 80 80 80 80 80 80 80 80
       0.0 0.0 0.0 0.0 0.0 0.0 0.0 0.0 0.0 0.0 0.0 0.0 0.0 0.0 0.0 0.0
000070 80 80 80 80 80 80 80 80 80 80 80 80 80 80 80 80
       0.0 0.0 0.0 0.0 0.0 0.0 0.0 0.0 0.0 0.0 0.0 0.0 0.0 0.0 0.0 0.0
000080 80 80 80 80 80 80 80 80 80 80 80 80 80 80 80 80
       0.0 0.0 0.0 0.0 0.0 0.0 0.0 0.0 0.0 0.0 0.0 0.0 0.0 0.0 0.0 0.0
000090 80 80 80 80 80 80 80 80 80 80 80 80 80 80 80 80
       0.0 0.0 0.0 0.0 0.0 0.0 0.0 0.0 0.0 0.0 0.0 0.0 0.0 0.0 0.0 0.0
0000a0 80 80 80 80 80 80 80 80 80 80 80 80 80 80 80 80
       0.0 0.0 0.0 0.0 0.0 0.0 0.0 0.0 0.0 0.0 0.0 0.0 0.0 0.0 0.0 0.0
0000b0 80 80 80 80 80 80 80 80 80 80 80 80 80 80 80 80
       0.0 0.0 0.0 0.0 0.0 0.0 0.0 0.0 0.0 0.0 0.0 0.0 0.0 0.0 0.0 0.0
0000c0 80 80 80 80 80 80 80 80 80 80 80 80 80 80 80 80
       0.0 0.0 0.0 0.0 0.0 0.0 0.0 0.0 0.0 0.0 0.0 0.0 0.0 0.0 0.0 0.0
0000d0 80 80 80 80 80 80 80 80 80 80 80 80 80 80 80 80
       0.0 0.0 0.0 0.0 0.0 0.0 0.0 0.0 0.0 0.0 0.0 0.0 0.0 0.0 0.0 0.0
0000e0 80 80 80 80 80 80 80 80 80 80 80 80 80 80 80 80
       0.0 0.0 0.0 0.0 0.0 0.0 0.0 0.0 0.0 0.0 0.0 0.0 0.0 0.0 0.0 0.0
0000f0 80 80 80 80 80 80 80 80 80 80 80 80 80 80 80 80
       0.0 0.0 0.0 0.0 0.0 0.0 0.0 0.0 0.0 0.0 0.0 0.0 0.0 0.0 0.0 0.0

tfl.pseudo_qconst26 i1 [1, 2, 1, 40] scale=0.101960786 zero_point=-128
000000 80 80 80 80 80 80 80 80 80 80 80 80 80 80 80 80
       0.0 0.0 0.0 0.0 0.0 0.0 0.0 0.0 0.0 0.0 0.0 0.0 0.0 0.0 0.0 0.0
000010 80 80 80 80 80 80 80 80 80 80 80 80 80 80 80 80
       0.0 0.0 0.0 0.0 0.0 0.0 0.0 0.0 0.0 0.0 0.0 0.0 0.0 0.0 0.0 0.0
000020 80 80 80 80 80 80 80 80 80 80 80 80 80 80 80 80
       0.0 0.0 0.0 0.0 0.0 0.0 0.0 0.0 0.0 0.0 0.0 0.0 0.0 0.0 0.0 0.0
000030 80 80 80 80 80 80 80 80 80 80 80 80 80 80 80 80
       0.0 0.0 0.0 0.0 0.0 0.0 0.0 0.0 0.0 0.0 0.0 0.0 0.0 0.0 0.0 0.0
000040 80 80 80 80 80 80 80 80 80 80 80 80 80 80 80 80
       0.0 0.0 0.0 0.0 0.0 0.0 0.0 0.0 0.0 0.0 0.0 0.0 0.0 0.0 0.0 0.0

tfl.pseudo_qconst27 i1 [1, 4, 1, 32] scale=0.758097 zero_point=-128
000000 80 80 80 80 80 80 80 80 80 80 80 80 80 80 80 80
       0.0 0.0 0.0 0.0 0.0 0.0 0.0 0.0 0.0 0.0 0.0 0.0 0.0 0.0 0.0 0.0
000010 80 80 80 80 80 80 80 80 80 80 80 80 80 80 80 80
       0.0 0.0 0.0 0.0 0.0 0.0 0.0 0.0 0.0 0.0 0.0 0.0 0.0 0.0 0.0 0.0
000020 80 80 80 80 80 80 80 80 80 80 80 80 80 80 80 80
       0.0 0.0 0.0 0.0 0.0 0.0 0.0 0.0 0.0 0.0 0.0 0.0 0.0 0.0 0.0 0.0
000030 80 80 80 80 80 80 80 80 80 80 80 80 80 80 80 80
       0.0 0.0 0.0 0.0 0.0 0.0 0.0 0.0 0.0 0.0 0.0 0.0 0.0 0.0 0.0 0.0
000040 80 80 80 80 80 80 80 80 80 80 80 80 80 80 80 80
       0.0 0.0 0.0 0.0 0.0 0.0 0.0 0.0 0.0 0.0 0.0 0.0 0.0 0.0 0.0 0.0
000050 80 80 80 80 80 80 80 80 80 80 80 80 80 80 80 80
       0.0 0.0 0.0 0.0 0.0 0.0 0.0 0.0 0.0 0.0 0.0 0.0 0.0 0.0 0.0 0.0
000060 80 80 80 80 80 80 80 80 80 80 80 80 80 80 80 80
       0.0 0.0 0.0 0.0 0.0 0.0 0.0 0.0 0.0 0.0 0.0 0.0 0.0 0.0 0.0 0.0
000070 80 80 80 80 80 80 80 80 80 80 80 80 80 80 80 80
       0.0 0.0 0.0 0.0 0.0 0.0 0.0 0.0 0.0 0.0 0.0 0.0 0.0 0.0 0.0 0.0

tfl.pseudo_qconst28 i1 [1, 10, 1, 64] scale=0.033491343 zero_point=-128
000000 80 80 80 80 80 80 80 80 80 80 80 80 80 80 80 80
       0.0 0.0 0.0 0.0 0.0 0.0 0.0 0.0 0.0 0.0 0.0 0.0 0.0 0.0 0.0 0.0
000010 80 80 80 80 80 80 80 80 80 80 80 80 80 80 80 80
       0.0 0.0 0.0 0.0 0.0 0.0 0.0 0.0 0.0 0.0 0.0 0.0 0.0 0.0 0.0 0.0
000020 80 80 80 80 80 80 80 80 80 80 80 80 80 80 80 80
       0.0 0.0 0.0 0.0 0.0 0.0 0.0 0.0 0.0 0.0 0.0 0.0 0.0 0.0 0.0 0.0
000030 80 80 80 80 80 80 80 80 80 80 80 80 80 80 80 80
       0.0 0.0 0.0 0.0 0.0 0.0 0.0 0.0 0.0 0.0 0.0 0.0 0.0 0.0 0.0 0.0
000040 80 80 80 80 80 80 80 80 80 80 80 80 80 80 80 80
       0.0 0.0 0.0 0.0 0.0 0.0 0.0 0.0 0.0 0.0 0.0 0.0 0.0 0.0 0.0 0.0
000050 80 80 80 80 80 80 80 80 80 80 80 80 80 80 80 80
       0.0 0.0 0.0 0.0 0.0 0.0 0.0 0.0 0.0 0.0 0.0 0.0 0.0 0.0 0.0 0.0
000060 80 80 80 80 80 80 80 80 80 80 80 80 80 80 80 80
       0.0 0.0 0.0 0.0 0.0 0.0 0.0 0.0 0.0 0.0 0.0 0.0 0.0 0.0 0.0 0.0
000070 80 80 80 80 80 80 80 80 80 80 80 80 80 80 80 80
       0.0 0.0 0.0 0.0 0.0 0.0 0.0 0.0 0.0 0.0 0.0 0.0 0.0 0.0 0.0 0.0
000080 80 80 80 80 80 80 80 80 80 80 80 80 80 80 80 80
       0.0 0.0 0.0 0.0 0.0 0.0 0.0 0.0 0.0 0.0 0.0 0.0 0.0 0.0 0.0 0.0
000090 80 80 80 80 80 80 80 80 80 80 80 80 80 80 80 80
       0.0 0.0 0.0 0.0 0.0 0.0 0.0 0.0 0.0 0.0 0.0 0.0 0.0 0.0 0.0 0.0
0000a0 80 80 80 80 80 80 80 80 80 80 80 80 80 80 80 80
       0.0 0.0 0.0 0.0 0.0 0.0 0.0 0.0 0.0 0.0 0.0 0.0 0.0 0.0 0.0 0.0
0000b0 80 80 80 80 80 80 80 80 80 80 80 80 80 80 80 80
       0.0 0.0 0.0 0.0 0.0 0.0 0.0 0.0 0.0 0.0 0.0 0.0 0.0 0.0 0.0 0.0
0000c0 80 80 80 80 80 80 80 80 80 80 80 80 80 80 80 80
       0.0 0.0 0.0 0.0 0.0 0.0 0.0 0.0 0.0 0.0 0.0 0.0 0.0 0.0 0.0 0.0
0000d0 80 80 80 80 80 80 80 80 80 80 80 80 80 80 80 80
       0.0 0.0 0.0 0.0 0.0 0.0 0.0 0.0 0.0 0.0 0.0 0.0 0.0 0.0 0.0 0.0
0000e0 80 80 80 80 80 80 80 80 80 80 80 80 80 80 80 80
       0.0 0.0 0.0 0.0 0.0 0.0 0.0 0.0 0.0 0.0 0.0 0.0 0.0 0.0 0.0 0.0
0000f0 80 80 80 80 80 80 80 80 80 80 80 80 80 80 80 80
       0.0 0.0 0.0 0.0 0.0 0.0 0.0 0.0 0.0 0.0 0.0 0.0 0.0 0.0 0.0 0.0

tfl.pseudo_qconst29 i1 [1, 14, 1, 64] scale=0.03307281 zero_point=-128
000000 80 80 80 80 80 80 80 80 80 80 80 80 80 80 80 80
       0.0 0.0 0.0 0.0 0.0 0.0 0.0 0.0 0.0 0.0 0.0 0.0 0.0 0.0 0.0 0.0
000010 80 80 80 80 80 80 80 80 80 80 80 80 80 80 80 80
       0.0 0.0 0.0 0.0 0.0 0.0 0.0 0.0 0.0 0.0 0.0 0.0 0.0 0.0 0.0 0.0
000020 80 80 80 80 80 80 80 80 80 80 80 80 80 80 80 80
       0.0 0.0 0.0 0.0 0.0 0.0 0.0 0.0 0.0 0.0 0.0 0.0 0.0 0.0 0.0 0.0
000030 80 80 80 80 80 80 80 80 80 80 80 80 80 80 80 80
       0.0 0.0 0.0 0.0 0.0 0.0 0.0 0.0 0.0 0.0 0.0 0.0 0.0 0.0 0.0 0.0
000040 80 80 80 80 80 80 80 80 80 80 80 80 80 80 80 80
       0.0 0.0 0.0 0.0 0.0 0.0 0.0 0.0 0.0 0.0 0.0 0.0 0.0 0.0 0.0 0.0
000050 80 80 80 80 80 80 80 80 80 80 80 80 80 80 80 80
       0.0 0.0 0.0 0.0 0.0 0.0 0.0 0.0 0.0 0.0 0.0 0.0 0.0 0.0 0.0 0.0
000060 80 80 80 80 80 80 80 80 80 80 80 80 80 80 80 80
       0.0 0.0 0.0 0.0 0.0 0.0 0.0 0.0 0.0 0.0 0.0 0.0 0.0 0.0 0.0 0.0
000070 80 80 80 80 80 80 80 80 80 80 80 80 80 80 80 80
       0.0 0.0 0.0 0.0 0.0 0.0 0.0 0.0 0.0 0.0 0.0 0.0 0.0 0.0 0.0 0.0
000080 80 80 80 80 80 80 80 80 80 80 80 80 80 80 80 80
       0.0 0.0 0.0 0.0 0.0 0.0 0.0 0.0 0.0 0.0 0.0 0.0 0.0 0.0 0.0 0.0
000090 80 80 80 80 80 80 80 80 80 80 80 80 80 80 80 80
       0.0 0.0 0.0 0.0 0.0 0.0 0.0 0.0 0.0 0.0 0.0 0.0 0.0 0.0 0.0 0.0
0000a0 80 80 80 80 80 80 80 80 80 80 80 80 80 80 80 80
       0.0 0.0 0.0 0.0 0.0 0.0 0.0 0.0 0.0 0.0 0.0 0.0 0.0 0.0 0.0 0.0
0000b0 80 80 80 80 80 80 80 80 80 80 80 80 80 80 80 80
       0.0 0.0 0.0 0.0 0.0 0.0 0.0 0.0 0.0 0.0 0.0 0.0 0.0 0.0 0.0 0.0
0000c0 80 80 80 80 80 80 80 80 80 80 80 80 80 80 80 80
       0.0 0.0 0.0 0.0 0.0 0.0 0.0 0.0 0.0 0.0 0.0 0.0 0.0 0.0 0.0 0.0
0000d0 80 80 80 80 80 80 80 80 80 80 80 80 80 80 80 80
       0.0 0.0 0.0 0.0 0.0 0.0 0.0 0.0 0.0 0.0 0.0 0.0 0.0 0.0 0.0 0.0
0000e0 80 80 80 80 80 80 80 80 80 80 80 80 80 80 80 80
       0.0 0.0 0.0 0.0 0.0 0.0 0.0 0.0 0.0 0.0 0.0 0.0 0.0 0.0 0.0 0.0
0000f0 80 80 80 80 80 80 80 80 80 80 80 80 80 80 80 80
       0.0 0.0 0.0 0.0 0.0 0.0 0.0 0.0 0.0 0.0 0.0 0.0 0.0 0.0 0.0 0.0
